docs/spectra-luna/model/inference_params.pth (torch, 336616 bytes, 29 tensors)

pos_embed f4 [1, 200, 64]
-0.22003041 0.046180204 -0.024400473 -0.12814653 -0.09802872 -0.3087631 -0.07657536 -0.14493068
0.22409306 0.023887454 -0.105536625 -0.09111551 0.34983298 -0.1285613 -0.19024497 0.09988338
0.0049809823 0.0043143937 -0.0799447 -0.24997827 0.14246945 0.2963682 0.03653422 0.012690675
0.42271027 -0.21641645 0.06770713 -0.28515086 0.00024470413 -0.028569352 -0.07680787 -0.08896477
0.36451423 -0.03361979 0.07215621 -0.07204029 0.24548222 0.12816177 -0.27550378 -0.011984774
0.037568543 -0.026563024 -0.24311723 0.24171197 0.11787314 0.0661551 -0.13398124 0.09632018
-0.06512131 0.14068772 0.010289158 -0.056900527 0.25147828 -0.29026332 0.2068138 -0.23227815
0.012353217 0.071344696 -0.3003426 -0.23765521 -0.2001436 0.1471671 -0.19854411 -0.011184357
-0.114899136 -0.116576076 0.01640217 0.041959886 -0.020967476 0.059396565 0.13230605 -0.015289273
-0.07181889 -0.06572073 0.039389394 -0.044040143 -0.037733093 -0.027867995 0.09151646 -0.023755807
0.035429053 -0.08181122 -0.02210929 0.019967914 0.044661514 0.022508537 -0.10219732 0.021124767
0.03989983 0.14871414 -0.07396643 0.06576123 -0.061964583 -0.07877583 -0.19264744 -0.16493206
-0.048298948 0.075667635 0.19503514 0.05305314 -0.010387316 -0.06589971 -0.0668394 0.08436447
-0.07174219 0.063020945 0.110314675 -0.07465822 0.25362 -0.06631964 -0.040682103 7.622027e-05
-0.010225465 0.05536226 -0.112733416 0.014275895 0.018248271 0.15302585 -0.06554188 -0.11188175
-0.022534784 -0.09536663 -0.02216623 0.07478192 0.07211764 0.03218428 -0.2202264 0.07344387
-0.11280568 -0.17145188 -0.0015490211 -0.08209802 0.025344523 -0.014200565 -0.042910367 -0.13249211
0.09974062 -0.12565589 0.14053312 0.0060284706 0.2198285 -0.050590314 -0.084786996 0.15342432
-0.039941974 -0.2907695 -0.1435821 -0.02518052 0.16794035 0.13590421 -0.16923784 0.12348597
0.097526975 -0.0064598345 -0.05987255 -0.05258255 0.025203297 -0.02364766 -0.25286147 -0.18751328
0.05314991 0.17678061 0.247518 -0.054641247 0.15900348 0.10204935 -0.29912305 0.22028753
-0.07811172 0.16099532 -0.05725653 0.015563646 0.19602463 -0.13184686 0.011960012 0.059928346
0.19300598 0.1267933 -0.20255795 -0.12698008 0.15633328 0.045505594 0.13891819 -0.17106877
-0.090984255 0.10949384 -0.07146885 0.051560856 -0.05888762 0.1245315 -0.22181751 -0.026877243
-0.076545164 -0.1122862 -0.03223195 -0.056093004 0.08340994 0.062893145 0.06078032 -0.12798417
-0.16287099 -0.052162647 0.021218594 -0.062733784 0.02277055 -0.042399753 -0.10175075 0.067395315
-0.06727295 -0.1432522 -0.0757765 -0.07000624 0.12166028 0.10330246 -0.10294587 0.13952634
-0.008067711 0.07838049 0.010089046 0.091300726 0.011057264 0.016402135 -0.14555232 -0.055813894
0.03099977 0.1308985 0.15037762 0.044075925 0.053374168 0.015867068 -0.05661956 0.13047242
-0.10580366 0.113702126 0.019904964 -0.00012647925 0.09745664 -0.070293814 0.07546571 0.0051354477
0.09426462 0.1033914 -0.10201821 -0.050037306 0.11434774 0.18047889 -0.08019497 -0.10577404
-0.12983654 0.048538625 -0.019327147 0.1424054 0.030348087 0.08124665 -0.051714998 -0.053508315
00000000: a74f 61be 7427 3d3d 80e3 c7bc d838 03be
00000010: 48c3 c8bd 3216 9ebe 8bd3 9cbd b568 14be
00000020: a778 653e 9faf c33c 9623 d8bd c59a babd
00000030: 4f1d b33e 93a5 03be 94cf 42be a88f cc3d
00000040: 8237 a33b c25f 8d3b 0cba a3bd 4efa 7fbe
00000050: 83e3 113e 93bd 973e e8a4 153d 8dec 4f3c
00000060: 7b6d d83e 469c 5dbe 09aa 8a3d 4bff 91be
00000070: a24b 8039 460a eabc 724d 9dbd 2933 b6bd
00000080: 9ca1 ba3e e8b4 09bd a3c6 933d dc89 93bd
00000090: b15f 7b3e d73c 033e d50e 8dbe c95b 44bc
000000a0: 79e1 193d b39a d9bc b9f3 78be 5883 773e
000000b0: 7967 f13d 537c 873d 6132 09be 8443 c53d
000000c0: 525e 85bd 7110 103e db93 283c 8710 69bd
000000d0: c3c1 803e 659d 94be ffc6 533e 53da 6dbe
000000e0: 2665 4a3c 2b1d 923d 81c6 99be e35b 73be
000000f0: 72f2 4cbe f9b2 163e 264f 4bbe 983e 37bc
00000100: 3d50 ebbd 70bf eebd d85d 863c 21de 2b3d
00000110: fcc3 abbc d049 733d 3d7b 073e dc7f 7abc
00000120: c815 93bd 9798 86bd c656 213d 7063 34bd
00000130: 048e 1abd 6c4b e4bc fb6c bb3d 8a9b c2bc
00000140: 0e1e 113d a48c a7bd 8b1e b5bc c093 a33c
00000150: feee 363d d363 b83c d44c d1bd d90d ad3c
00000160: 016e 233d 8548 183e b67b 97bd d3ad 863d
00000170: 93ce 7dbd 3955 a1bd 5f45 45be f3e3 28be
00000180: 1ed5 45bd a2f7 9a3d 4bb7 473e 404e 593d
00000190: 902f 2abc 6df6 86bd 18e3 88bd 47c7 ac3d
000001a0: 92ed 92bd 2011 813d a9ec e13d 69e6 98bd
000001b0: 7bda 813e 97d2 87bd 47a2 26bd 72d8 9f38
000001c0: b588 27bc 8ac3 623d c7e0 e6bd 72e5 693c
000001d0: 667d 953c cfb2 1c3e d23a 86bd 4222 e5bd
000001e0: de9a b8bc 944f c3bd f495 b5bc 4327 993d
000001f0: 6ab2 933d aad3 033d 0883 61be bd69 963d
00000200: aa06 e7bd 1591 2fbe 8608 cbba 0223 a8bd
00000210: 519f cf3c 7da9 68bc c8c2 2fbd 03ac 07be
00000220: cf44 cc3d f0ab 00be eae7 0f3e 7a8a c53b
00000230: b91a 613e ca37 4fbd cea4 adbd 441b 1d3e
00000240: 329a 23bd bddf 94be 3007 13be 6147 cebc
00000250: 8ef8 2b3e 792a 0b3e af4c 2dbe 36e6 fc3d
00000260: 39bc c73d 05ad d3bb eb3c 75bd cd60 57bd
00000270: 2577 ce3c bdb8 c1bc 0f77 81be 7b03 40be
00000280: b8b3 593d fa05 353e 5c75 7d3e 80cf 5fbd
00000290: cfd1 223e 40ff d03d a826 99be 0e93 613e
000002a0: 0af9 9fbd f5db 243e d385 6abd aafe 7e3c
000002b0: aeba 483e dd02 07be edf3 433c 6d77 753d
000002c0: 5ca3 453e 1ad6 013e 5a6b 4fbe 1107 02be
000002d0: d515 203e 1364 3a3d 9240 0e3e a72c 2fbe
000002e0: f455 babd 4e3e e03d 435e 92bd 7a31 533d
000002f0: 2534 71bd 5f0a ff3d 2124 63be aa2d dcbc
00000300: b6c3 9cbd 4ff6 e5bd a605 04bd c7c1 65bd
00000310: d5d2 aa3d 1fce 803d c9f4 783d 480e 03be
00000320: a7c7 26be 80a8 55bd 9ed2 ad3c 927a 80bd
00000330: 4e89 ba3c 5dab 2dbd b262 d0bd 8e06 8a3d
00000340: 67c6 89bd b4b0 12be b630 9bbd 6e5f 8fbd
00000350: 0629 f93d 3d90 d33d 49d5 d2bd fedf 0e3e
00000360: 6f2e 04bc f385 a03d 874c 253c e0fb ba3d
00000370: 8729 353c c55d 863c ab0b 15be 1c9d 64bd
00000380: 3bf3 fd3c 420a 063e 97fc 193e f588 343d
00000390: df9e 5a3d a7fb 813c e9e9 67bd 909a 053e
000003a0: 97af d8bd a9dc e83d bc0f a33c 849f 04b9
000003b0: 5997 c73d 34f6 8fbd c48d 9a3d 4247 a83b
000003c0: cf0d c13d dfbe d33d ecee d0bd ebf3 4cbd
000003d0: 262f ea3d 75cf 383e 433d a4bd 0fa0 d8bd
000003e0: dff3 04be 70d0 463d f753 9ebc b9d2 113e
000003f0: 8d9c f83c a564 a63d 1bd3 53bd 892b 5bbd

value_embed.weight f4 [64, 1]
-0.65306973 -1.0419348 -0.6530798 -0.8801452 0.27093965 -0.010517163 -0.9592545 -0.5728939
0.768191 -0.8847868 1.0714011 -0.22860084 0.15856549 -0.5898178 -0.19578746 0.07496232
-0.561567 -0.8233632 -0.7553868 -0.60341024 0.30660763 -0.056866437 -0.6574546 0.4878315
0.3017143 -0.56217164 0.5576579 -0.8109619 0.9339643 1.0347326 -0.64097834 -0.37440956
0.044952266 0.5422017 0.5830955 -0.39756963 0.92257094 0.23987006 -0.048321385 0.32443655
-1.0571104 1.0260851 -0.38865808 1.0037148 0.28284708 -0.7921297 0.8475901 0.7938355
0.7770441 0.6320892 -0.68852454 -0.836355 0.2829515 -0.3488931 -0.28739113 -0.33221576
-0.62534666 0.9982413 -0.43636993 -0.35956377 -0.3168736 0.5478867 -0.21222724 -0.4559567
00000000: 942f 27bf 1f5e 85bf 3d30 27bf 3251 61bf
00000010: 9ab8 8a3e 2e50 2cbc b491 75bf 2da9 12bf
00000020: 2aa8 443f 6381 62bf ac23 893f 5716 6abe
00000030: fe5e 223e 4dfe 16bf 827c 48be d885 993d
00000040: dbc2 0fbf eec7 52bf 0861 41bf 1879 1abf
00000050: adfb 9c3e c8ec 68bd f24e 28bf 0dc5 f93e
00000060: 4c7a 9a3e 7bea 0fbf abc2 0e3f 339b 4fbf
00000070: 4918 6f3f 1e72 843f 2817 24bf 9cb2 bfbe
00000080: de1f 383d bbcd 0a3f bf45 153f 3f8e cbbe
00000090: 9c2d 6c3f 7fa0 753e a5ec 45bd 8c1c a63e
000000a0: 654f 87bf c256 833f 31fe c6be ba79 803f
000000b0: 55d1 903e 03c9 4abf aafb 583f ce38 4b3f
000000c0: 5dec 463f 99d0 213f 2543 30bf 5c1b 56bf
000000d0: 05df 903e 1ea2 b2be ee24 93be 2f18 aabe
000000e0: b816 20bf be8c 7f3f e16b dfbe be18 b8be
000000f0: 423d a2be 4e42 0c3f 1952 59be 2873 e9be

value_embed.bias f4 [64]
0.1674622 0.4660132 -0.57302696 -0.34847802 -0.037607923 -0.29644644 -0.6445098 0.4266284
0.9063013 0.27959147 -0.4372794 0.33187392 -0.279276 0.08257822 0.38764536 -0.6782258
0.33276504 0.6289199 0.7051725 -0.13380595 -0.07695146 0.32333747 -0.121967174 -0.8685102
0.85025615 -0.91173935 -0.44078144 -0.29003975 0.5760986 0.058640737 0.8930028 0.1497068
-0.71954095 -0.33560106 0.038159586 -0.44819382 0.48612747 0.14014521 -0.021728454 -0.42608505
0.93217397 -0.5881575 -0.664808 0.3105963 -0.1012687 0.5429245 -0.84010226 -0.50175136
-0.79346955 -0.74639684 0.89852583 0.646218 -0.45714915 -0.6996725 0.010906353 0.051604614
0.65602565 0.141259 -0.60146064 -0.79282016 0.7742669 0.3078494 0.03546903 0.7085557
00000000: 367b 2b3e 4899 ee3e e5b1 12bf b66b b2be
00000010: c40a 1abd d4c7 97be 98fe 24bf 0a6f da3e
00000020: 5d03 683f 9d26 8f3e 16e3 dfbe 61eb a93e
00000030: 44fd 8ebe c51e a93d 7479 c63e 35a0 2dbf
00000040: 2e60 aa3e e500 213f 2f86 343f 6d04 09be
00000050: ba98 9dbd 7d8c a53e edc9 f9bd af56 5ebf
00000060: 63aa 593f c067 69bf 1bae e1be 1780 94be
00000070: 337b 133f 4531 703d d59b 643f bd4c 193e
00000080: d633 38bf e7d3 abbe 3a4d 1c3d a979 e5be
00000090: b3e5 f83e 3a82 0f3e dfff b1bc d227 dabe
000000a0: f4a2 6e3f 7d91 16bf db30 2abf 7a06 9f3e
000000b0: f765 cfbd 1afd 0a3f f110 57bf c772 00bf
000000c0: d220 4bbf dd13 3fbf ca05 663f 8b6e 253f
000000d0: 740f eabe bd1d 33bf 8fb0 323c 5c5f 533d
000000e0: 4cf1 273f 33a6 103e 53f9 19bf 43f6 4abf
000000f0: 5b36 463f 709e 9d3e f947 113d e863 353f

transformer.layers.0.self_attn.in_proj_weight f4 [192, 64]
0.06657537 0.1056896 0.20139419 0.21133395 -0.2183849 0.04638396 0.23513845 -0.030888593
-0.0603728 0.060228296 -0.18424004 -0.019819774 -0.056114588 0.19967864 0.012240446 -0.034135286
0.08941539 -0.05544258 -0.08555971 0.12828518 -0.17069903 -0.018612262 0.14747551 -0.056915026
-0.10375172 0.1158715 -0.028995853 0.10549117 -0.26016903 -0.15153289 -0.16302426 0.05422098
0.019035509 -0.09892712 -0.041728605 0.04130859 -0.20404813 -0.17586918 0.064018875 0.027109921
0.10347588 -0.05575841 0.11132098 -0.07336939 -0.19106577 0.063011914 0.09039932 0.07503616
0.21629758 0.12634875 -0.02270584 -0.17927486 0.15817511 0.1523598 0.05040612 0.028344132
-0.019880615 0.029131673 0.1925697 0.02378044 -0.08805734 -0.22592236 0.20128062 -0.10658577
-0.28319088 0.08745893 -0.24253705 -0.24769661 0.24883364 -0.21193343 -0.07870063 0.10026805
0.22456372 -0.30522382 0.01432715 0.2321636 -0.1733392 -0.14454406 0.0062559606 -0.0974891
-0.09895834 0.16993581 0.12589803 -0.19090396 0.094398595 0.22080727 -0.09429724 -0.10818646
0.17556597 -0.1450815 -0.064646825 -0.06586214 0.015906177 0.2667165 -0.029422877 -0.068396404
-0.08916628 0.12070533 0.1797841 -0.10791788 0.006903942 0.15536872 0.031422384 -0.11292817
0.14809515 -0.13222776 -0.18337204 0.076583266 0.11205315 0.09812652 -0.09585576 0.11381369
-0.035100296 -0.098896064 0.17072213 0.16090374 -0.032051355 -0.0005298541 -0.1969784 0.004744923
0.16514453 0.1412653 -0.12680507 -0.22543299 0.17479338 -0.04227147 -0.2109287 -0.024528185
-0.14701253 0.0015802938 0.010605036 -0.039899457 0.3517393 -0.07076946 -0.22172049 0.17539792
0.05521225 -0.17020519 0.25633967 0.009565295 -0.17046662 -0.080759436 0.0466908 -0.09087496
-0.01521283 0.12725101 0.088062264 -0.2039317 0.13115877 0.1442753 0.037765414 -0.013950732
-0.043183155 -0.08651126 -0.04027459 0.043493815 0.14792159 0.15124469 0.19876733 -0.07017439
-0.17122716 -0.10494733 0.20492652 -0.24846628 0.18181804 0.04559909 0.0340987 -0.104887486
-0.031293776 -0.0728123 -0.023418197 -0.05109415 0.30572796 0.09310933 -0.083729394 0.10009157
0.016843308 -0.21077773 0.13424629 0.17313841 -0.054207772 -0.01818657 -0.041224208 -0.042707976
0.15344846 0.011827644 0.026525332 0.00039369316 0.20336264 0.10779516 -0.027315496 0.1313908
0.19600509 0.118214 -0.029232925 0.072403386 -0.3315438 0.15016733 0.25442222 0.04372523
-0.23285362 0.10849735 -0.13513659 -0.21302108 0.15646933 0.04641862 -0.2646592 0.05399146
0.039907645 -0.008174639 -0.002226805 0.09410234 -0.16393389 -0.18446511 0.15811712 -0.019209994
-0.14660226 0.25497994 0.006803736 0.22905226 -0.16280052 -0.09048826 0.02483239 0.20909275
0.09714435 0.020024907 -0.18357968 0.23131925 0.028669216 0.025752226 -0.0395959 -0.054659083
-0.20431267 0.06640698 0.020797247 -0.20335767 -0.2977255 0.018665643 0.16464591 -0.15965259
0.113431364 0.13829778 0.0143602565 -0.1799436 0.19078557 0.21832491 0.28430253 0.20878549
-0.1313853 -0.2569801 0.01415308 0.15082905 -0.0030964268 -0.19128259 0.06390957 0.082581
00000000: ab58 883d ca73 d83d 473a 4e3e ed67 583e
00000010: 4ba0 5fbe 1bfd 3d3d 22c8 703e 130a fdbc
00000020: 7849 77bd f2b1 763d 6ca9 3cbe 145d a2bc
00000030: 69d8 65bd 8f78 4c3e 278c 483c 71d1 0bbd
00000040: 6a1f b73d c217 63bd ee39 afbd 315d 033e
00000050: bacb 2ebe be78 98bc d203 173e bb1f 69bd
00000060: c87b d4bd 094e ed3d b688 edbc c10b d83d
00000070: e034 85be 702b 1bbe d5ef 26be d116 5e3d
00000080: 5bf0 9b3c 4d9a cabd 9deb 2abd 3233 293d
00000090: fef1 50be 0d17 34be 541c 833d a015 de3c
000000a0: 2aeb d33d ee62 64bd 41fc e33d b142 96bd
000000b0: bfa6 43be 640c 813d 4723 b93d 8fac 993d
000000c0: 1d7d 5d3e 9161 013e 9901 babc d493 37be
000000d0: a8f8 213e 3504 1c3e a676 4e3d f431 e83c
000000e0: acdc a2bc 8ca5 ee3c fe30 453e 33cf c23c
000000f0: 6857 b4bd 3158 67be 821c 4e3e a449 dabd
00000100: 65fe 90be ab1d b33d a25b 78be 2ea4 7dbe
00000110: 3fce 7e3e 1405 59be cc2d a1bd 5659 cd3d
00000120: 08f4 653e 4c46 9cbe 6cbc 6a3c 4bbc 6d3e
00000130: d57f 31be 5c03 14be cdfe cc3b 5ea8 c7bd
00000140: acaa cabd a703 2e3e 6aeb 003e 547c 43be
00000150: 0d54 c13d 4d1b 623e e91e c1bd dd90 ddbd
00000160: 91c7 333e 3f90 14be 8e65 84bd bbe2 86bd
00000170: ac4d 823c 118f 883e 3f08 f1bc 6a13 8cbd
00000180: d09c b6bd 5b34 f73d 5319 383e 0d04 ddbd
00000190: 773a e23b fa18 1f3e c2b4 003d e246 e7bd
000001a0: 41a6 173e b766 07be e1c5 3bbe b0d7 9c3d
000001b0: 1f7c e53d 8ff6 c83d 0650 c4bd 2717 e93d
000001c0: 54c5 0fbd 058a cabd c8d1 2e3e f3c3 243e
000001d0: 4848 03bd e8e5 0aba b5b4 49be 4d7b 9b3b
000001e0: a61b 293e daa7 103e 30d9 01be e8d7 66be
000001f0: 09fd 323e d924 2dbd b1fd 57be 55ef c8bc
00000200: 748a 16be dc21 cf3a bfc0 2d3c 9d6d 23bd
00000210: 2c17 b43e 94ef 90bd b20a 63be 839b 333e
00000220: 3e26 623d 454a 2ebe f43e 833e c1b7 1c3c
00000230: cd8e 2ebe 3465 a5bd da3e 3f3d a71c babd
00000240: 3c3f 79bc 174e 023e fd59 b43d 79d3 50be
00000250: 7c4e 063e e7bc 133e e8af 1a3d 9c91 64bc
00000260: d2e0 30bd d12c b1bd f8f6 24bd 9226 323d
00000270: c278 173e e3df 1a3e aa89 4b3e 97b7 8fbd
00000280: 2c56 2fbe a0ee d6bd 42d8 513e f26d 7ebe
00000290: 822e 3a3e 1dc6 3a3d 14ab 0b3d 40cf d6bd
000002a0: e72d 00bd 9d1e 95bd 85d7 bfbc 1948 51bd
000002b0: 6088 9c3e 1bb0 be3d 517a abbd cffc cc3d
000002c0: fafa 893c 1ed6 57be dc77 093e 324b 313e
000002d0: f808 5ebd 00fc 94bc b7da 28bd 8fee 2ebd
000002e0: 9821 1d3e bcc8 413c a74b d93c 9a68 ce39
000002f0: 4c3e 503e b5c3 dc3d bfc4 dfbc 4f8b 063e
00000300: 8fb5 483e 2e1a f23d e379 efbc 3a48 943d
00000310: 1cc0 a9be 77c5 193e a143 823e 3a19 333d
00000320: 2e71 6ebe dc33 de3d 3f61 0abe 3322 5abe
00000330: 7f39 203e 7321 3e3d 6981 87be 2626 5d3d
00000340: 3376 233d ecee 05bc 97ef 11bb bab8 c03d
00000350: 49de 27be 6ce4 3cbe 74e9 213e 475e 9dbc
00000360: e71e 16be bb8c 823e e0f1 de3b ad8c 6a3e
00000370: 2eb5 26be e951 b9bd 4c6d cb3c 691c 563e
00000380: 9ef3 c63d 460b a43c 50fc 3bbe f4de 6c3e
00000390: b4db ea3c 55f6 d23c 4f2f 22bd 34e2 5fbd
000003a0: 5737 51be 6200 883d fd5e aa3c fe3c 50be
000003b0: 7a6f 98be b1e8 983c f098 283e f87b 23be
000003c0: b44e e83d ef9d 0d3e 4847 6b3c 2343 38be
000003d0: 4b5d 433e 9190 5f3e 1a90 913e ddcb 553e
000003e0: de89 06be e592 83be 52e2 673c ee72 1a3e
000003f0: 6ced 4abb 95df 43be 05e3 823d 3a20 a93d

transformer.layers.0.self_attn.in_proj_bias f4 [192]
-0.08120423 0.10052853 0.07841578 -0.09741165 -0.0752567 -0.07264152 0.08333515 -0.08555581
-0.07320361 0.07147374 -0.07062733 -0.070072 -0.064964704 0.05930729 0.06576486 -0.06279433
-0.059516583 0.03585 0.07119885 -0.091385126 -0.068718076 -0.027509935 -0.06161188 -0.083408184
0.09198633 -0.08912189 -0.08775298 0.09491861 0.04921981 -0.027476868 0.08974854 -0.08149447
-0.05355097 0.06605332 -0.049615376 -0.074762255 0.07570164 0.057703823 0.10001344 0.0731596
0.061675545 0.060228743 0.06436752 0.04390291 0.039943535 0.066471756 -0.05329944 0.057993613
0.01371592 0.01950428 0.0010309723 -0.003322618 -0.029147886 0.017091565 -0.03876484 0.01408328
0.055049006 0.04824845 -0.04678907 0.0528376 0.039227407 -0.05782745 -0.061337344 -0.05524496
0.03491655 -0.010753959 -0.007935924 -0.018368017 -0.0029582276 0.013063181 -0.0012924569 0.011946419
-0.00507749 0.0055495445 -0.0011278486 -0.00060396123 -0.0015868081 0.00056018523 -0.0005746583 -0.0061204485
-0.00094959995 -0.00079377287 -0.00019045148 1.537544e-05 0.00019857085 -0.000739305 -0.0015971446 0.00095650856
-0.006790688 -0.0024401555 0.010962322 -0.01191418 -0.0070706876 0.00030922916 -0.005942733 0.00840668
0.0018088571 0.011197866 -0.004224852 -0.0098118335 -0.005433118 0.004793468 0.010671672 0.011709167
-0.0006203143 0.002264809 -0.0027839364 0.0023936247 0.0006253527 0.0027152542 0.0020642593 -0.0018645927
0.00087551796 -0.0001263372 -0.00041600128 0.000100247664 -0.0002919014 -3.811032e-05 -0.00034406618 -0.00012770637
0.004237285 0.0014572804 -0.0033215096 -0.00026445778 0.0059708776 -0.014179856 -0.01171259 -0.008433698
-0.0046782503 -0.010849961 -0.011228515 -0.005435606 -0.022337947 0.024003465 -0.0053250794 -0.013405539
-0.018929753 -0.010458346 -0.0050309994 0.00935705 0.010466701 -0.016092977 -0.00024880638 0.00014361588
-0.00805519 0.013064073 0.013166138 -0.017833473 -0.003934875 -0.0119794365 -0.019400386 0.007072091
-0.003251037 -0.01218038 -0.0060280883 -0.00089168997 -0.0017578722 -0.008064917 -0.032661647 0.021566717
0.0024571435 0.009329568 0.028850148 -0.007368832 -0.016558029 -0.007932225 -0.017501041 -0.0077605764
0.005447433 -0.0009069956 0.007566905 0.00926289 0.020939827 -0.01002321 6.455206e-05 -0.0105771655
-0.032934457 0.010321801 0.010291726 -0.0056455447 -0.030522482 0.00089659146 -0.007547161 0.026297152
0.01771316 -0.0086175455 -2.2206805e-05 0.00018929927 -0.02160482 0.010639945 -0.020073738 -0.007872436
00000000: 674e a6bd e7e1 cd3d 7498 a03d c27f c7bd
00000010: 2f20 9abd 14c5 94bd 9eab aa3d e237 afbd
00000020: c6eb 95bd d360 923d 10a5 90bd e981 8fbd
00000030: 370c 85bd 33ec 723d baaf 863d 509a 80bd
00000040: a9c7 73bd 73d7 123d b4d0 913d 2028 bbbd
00000050: 10bc 8cbd 845c e1bc bd5c 7cbd e9d1 aabd
00000060: 5463 bc3d 8a85 b6bd d6b7 b3bd b064 c23d
00000070: b69a 493d 2b17 e1bc 15ce b73d 93e6 a6bd
00000080: 4358 5bbd f746 873d 7e39 4bbd f41c 99bd
00000090: 7609 9b3d d85a 6c3d d9d3 cc3d b3d4 953d
000000a0: 7f9f 7c3d 6ab2 763d 1ed3 833d 8ad3 333d
000000b0: d59b 233d 5822 883d 8350 5abd b68a 6d3d
000000c0: bdb8 603c 71c7 9f3c b121 873a 48c0 59bb
000000d0: 8cc7 eebc 9c03 8c3c e2c7 1ebd 8fbd 663c
000000e0: 117b 613d 2ba0 453d e5a5 3fbd 3d6c 583d
000000f0: ebac 203d 7adc 6cbd de3c 7bbd 8a48 62bd
00000100: a804 0f3d 6031 30bc ae05 02bc 8678 96bc
00000110: d3de 41bb f406 563c a867 a9ba eaba 433c
00000120: 1361 a6bb f4d8 b53b 52d4 93ba 2753 1eba
00000130: 72fc cfba 65d9 123a aaa4 16ba 0b8e c8bb
00000140: 93ee 78ba 3215 50ba eeb3 47b9 82fa 8037
00000150: 7537 5039 ebcd 41ba 4857 d1ba 34be 7a3a
00000160: 6b84 debb 04eb 1fbb 509b 333c b133 43bc
00000170: 3ab1 e7bb 0920 a239 42bb c2bb 2cbc 093c
00000180: 2c17 ed3a 4177 373c a170 8abb d0c1 20bc
00000190: 4c08 b2bb 8612 9d3b 3dd8 2e3c ced7 3f3c
000001a0: 979c 22ba 316d 143b b472 36bb 5cde 1c3b
000001b0: b6ee 233a 68f2 313b 8648 073b 5965 f4ba
000001c0: 0483 653a 6279 04b9 bf1a dab9 0e3c d238
000001d0: 580a 99b9 a5d8 1fb8 c863 b4b9 ebe8 05b9
000001e0: ecd8 8a3b 3702 bf3a afad 59bb eca6 8ab9
000001f0: 5aa7 c33b a052 68bc 2ae6 3fbc 7e2d 0abc
00000200: 024c 99bb 09c4 31bc cef7 37bc 2b1d b2bb
00000210: 12fe b6bc eaa2 c43c 017e aebb e8a2 5bbc
00000220: 9212 9bbc 7c59 2bbc 15db a4bb 504e 193c
00000230: 877c 2b3c 6bd5 83bc 3a72 82b9 9897 1639
00000240: eaf9 03bc b20a 563c c9b6 573c 8117 92bc
00000250: 20f0 80bb 6645 44bc 8fed 9ebc 00bd e73b
00000260: 5a0f 55bb 3790 47bc 4587 c5bb 4dc0 69ba
00000270: 6768 e6ba b722 04bc 38c8 05bd afac b03c
00000280: 0708 213b 0bdb 183c 2557 ec3c 3e76 f1bb
00000290: b4a4 87bc 2af6 01bc 585e 8fbc 6f4c febb
000002a0: 6180 b23b 72c3 6dba cdf3 f73b 60c3 173c
000002b0: 008a ab3c 6438 24bc 2060 8738 d94b 2dbc
000002c0: 48e6 06bd c51c 293c a19e 283c 43fe b8bb
000002d0: 490a fabc 3c09 6b3a 2d4e f7bb 206d d73c
000002e0: 301b 913c 9b30 0dbc c048 bab7 a37e 4639
000002f0: 97fc b0bc 2a53 2e3c ae71 a4bc 64fb 00bc

transformer.layers.0.self_attn.out_proj.weight f4 [64, 64]
-0.050020434 0.048761237 0.09279051 -0.08384714 0.061454497 -0.020486554 -0.089182876 0.04477892
0.036541533 -0.007014174 -0.012015972 0.054654937 0.050447654 0.12770726 0.08301102 -0.1031656
0.046602573 0.054202467 -0.100060016 -0.10024675 -0.007955753 -0.05896848 0.10334889 -0.09969286
0.003933688 -0.016484017 -0.1291428 0.06502008 0.07345341 0.11630609 -0.0016114106 0.09956316
-0.021271266 -0.1642736 0.06279258 -0.057085183 0.05930866 -0.02909853 -0.09868625 0.033018675
-0.057458628 0.13757978 -0.016098827 0.08980927 0.082367055 -0.10649014 0.06459513 0.100177675
0.09002688 0.10628125 0.07005456 -0.11043065 -0.0795514 -0.028810807 -0.064182505 0.038309004
0.050818793 -0.027659323 -0.114529885 0.04280346 -0.075110324 0.09023526 -0.044729996 0.11124883
-0.03560325 0.026905864 0.13368945 0.03248317 -0.025829546 0.048515573 -0.022853486 0.062026676
-0.03329393 0.088897794 -0.059959784 -0.008231668 -0.078324884 0.064328656 -0.06828793 -0.027881132
0.026060652 -0.054311037 0.039780885 0.0068098246 0.064852044 -0.003867542 -0.06981574 0.019484373
0.024136452 0.10477907 -0.027391639 -0.036712617 0.01323915 -0.047580358 -0.007965645 -0.028006937
0.114184774 -0.13815098 -0.024392327 0.060387775 -0.052945618 0.056720074 0.07818124 0.07967778
-0.11537867 -0.013384911 -0.047382735 -0.015248759 0.10171901 -0.06449879 -0.042784464 -0.02786368
-0.036329474 0.015113706 0.00129006 -0.0022601562 0.010185796 -0.028003415 -0.055373713 -0.021878242
-0.09566206 0.10567363 0.04221123 0.065758236 0.095194556 -0.07728152 -0.052933328 0.09520176
-0.056699995 0.0076976316 -0.10269705 -0.08057274 0.13762634 0.02047089 0.058788087 0.063783914
-0.00975164 -0.124251634 -0.034784544 -0.072846934 0.03385159 0.105484046 -0.167963 -0.084152766
0.07189369 0.005441912 0.01316939 -0.101487026 -0.02258557 0.08020324 0.059038594 -0.038957182
-0.003757114 -0.061702482 -0.22456796 0.13596566 0.15399368 -0.16583472 0.11064526 -0.15290299
0.11130873 0.01739917 -0.040865995 -0.029904075 0.04376875 0.096172586 0.031087669 0.081747584
0.0018972771 0.03022394 -0.028795311 0.104260005 -0.12099046 0.1007254 0.07809504 -0.030979393
0.11138294 0.059271295 -0.04729379 0.03134685 0.060186375 0.08506011 -0.051613245 0.105316795
-0.08186538 0.13253841 0.028616292 0.088680424 -0.054549914 0.10280445 0.16509716 -0.0067649777
-0.10900719 -0.015173743 -0.042213466 -0.08368611 0.12138434 0.08038713 0.074026406 0.07178971
0.010199456 -0.034592777 0.09599964 0.06116724 0.06951639 0.02383031 -0.08199429 0.04700737
0.06974699 -0.054412987 0.11686799 -0.017407006 0.03988485 0.043789327 0.052102577 -0.03986293
0.092750534 0.0938448 0.052180912 0.04780774 0.06962718 0.06474375 -0.05061554 0.0529677
-0.040364485 -0.011867014 -0.028434023 -0.06909907 0.03867811 -0.07093365 -0.061774958 -0.033403408
0.07167821 0.021866195 -0.12091852 -0.041117914 0.044090997 -0.09483304 0.0018693511 0.04298556
0.04048541 -0.060919963 -0.10733478 0.017489763 0.12629232 0.10747902 0.16369505 -0.091423355
-0.14528115 0.037426487 -0.010474491 0.023357606 -0.061104123 -0.052905522 0.020147119 0.07169221
00000000: 3ae2 4cbd ddb9 473d f308 be3d 0db8 abbd
00000010: b6b7 7b3d 6bd3 a7bc 83a5 b6bd 1a6a 373d
00000020: 93ac 153d 28d7 e5bb a4de 44bc dbdd 5f3d
00000030: 33a2 4e3d b1c5 023e af01 aa3d 7c48 d3bd
00000040: 57e2 3e3d 6803 5e3d 44ec ccbd 2b4e cdbd
00000050: d958 02bc ef88 71bd 95a8 d33d c52b ccbd
00000060: 2be6 803b 7d09 87bc 033e 04be 3f29 853d
00000070: be6e 963d e331 ee3d f835 d3ba c5e7 cb3d
00000080: 1441 aebc 5737 28be 6599 803d 27d2 69bd
00000090: a3ed 723d 0a60 eebc 041c cabd 973e 073d
000000a0: bd59 6bbd b7e1 0c3e b0e1 83bc eced b73d
000000b0: 0fb0 a83d 8117 dabd 744a 843d f429 cd3d
000000c0: 0360 b83d fca9 d93d c478 8f3d 7729 e2bd
000000d0: d8eb a2bd a404 ecbc 1e72 83bd e7e9 1c3d
000000e0: 5e27 503d ce95 e2bc a58e eabd ae52 2f3d
000000f0: 71d3 99bd 44cd b83d cd36 37bd 6dd6 e33d
00000100: b7d4 11bd b069 dc3c e3e5 083e 130d 053d
00000110: 7c98 d3bc 44b8 463d 3c37 bbbc af0f 7e3d
00000120: 375f 08bd 0c10 b63d 6498 75bd 1ede 06bc
00000130: cc68 a0bd bebe 833d 8bda 8bbd f966 e4bc
00000140: 267d d53c 4075 5ebd 48f1 223d f324 df3b
00000150: 26d1 843d 9676 7dbb 8efb 8ebd b19d 9f3c
00000160: cfb9 c53c 6996 d63d 6e64 e0bc f85f 16bd
00000170: 05e9 583c 9fe3 42bd 5682 02bc ce6e e5bc
00000180: b5d9 e93d 7377 0dbe 6bd2 c7bc 2c59 773d
00000190: 81dd 58bd 4f53 683d 7c1d a03d 1b2e a33d
000001a0: a74b ecbd 634c 5bbc 6614 42bd eed5 79bc
000001b0: 0e52 d03d f117 84bd c33e 2fbd 5f42 e4bc
000001c0: 37ce 14bd 7a9f 773c 3b17 a93a 211f 14bb
000001d0: 53e2 263c 6b67 e5bc 8ccf 62bd 003a b3bc
000001e0: 78ea c3bd 6b6b d83d afe5 2c3d 41ac 863d
000001f0: 5df5 c23d c645 9ebd 9ed0 58bd 24f9 c23d
00000200: 413e 68bd 6a3c fc3b d552 d2bd 5203 a5bd
00000210: ebed 0c3e 91b2 a73c c7cb 703d 24a1 823d
00000220: 58c5 1fbc a477 febd 3d7a 0ebd c630 95bd
00000230: f7a7 0a3d 0508 d83d 7efe 2bbe 4958 acbd
00000240: 003d 933d 1152 b23b 6dc4 573c 6ed8 cfbd
00000250: 6005 b9bc 9941 a43d 74d2 713d 9191 1fbd
00000260: ea39 76bb bebb 7cbd 25f5 65be 953a 0b3e
00000270: 85b0 1d3e 94d0 29be fb99 e23d 9a92 1cbe
00000280: d5f5 e33d b488 8e3c 1a63 27bd 64f9 f4bc
00000290: dc46 333d 22f6 c43d 91ab fe3c 476b a73d
000002a0: 0eae f83a 3298 f73c 25e4 ebbc 4586 d53d
000002b0: d9c9 f7bd 1e49 ce3d 4bf0 9f3d 7fc8 fdbc
000002c0: bd1c e43d 75c6 723d 22b7 41bd 8e65 003d
000002d0: fd85 763d ff33 ae3d 6968 53bd 55b0 d73d
000002e0: 09a9 a7bd 26b8 073e b76c ea3c 159e b53d
000002f0: bb6f 5fbd 248b d23d 3b0f 293e bfac ddbb
00000300: 293f dfbd 4a9b 78bc 07e8 2cbd a063 abbd
00000310: 5a98 f83d 02a2 a43d 289b 973d 7c06 933d
00000320: 9e1b 273c 28b1 0dbd 769b c43d 808a 7a3d
00000330: 9c5e 8e3d c837 c33c 9fec a7bd cd8a 403d
00000340: 83d7 8e3d 27e0 5ebd 7c58 ef3d 2399 8ebc
00000350: 4c5e 233d 705c 333d 8369 553d 5047 23bd
00000360: fef3 bd3d b431 c03d a7bb 553d 0cd2 433d
00000370: b298 8e3d 5f98 843d 3e52 4fbd a9f4 583d
00000380: 3b55 25bd dd6d 42bc 78ee e8bc d083 8dbd
00000390: f06c 1e3d a945 91bd bd07 7dbd 03d2 08bd
000003a0: 06cc 923d bc20 b33c 21a4 f7bd 426b 28bd
000003b0: c398 343d d337 c2bd 0405 f53a a011 303d
000003c0: 07d4 253d 3687 79bd 56d2 dbbd b146 8f3c
000003d0: c652 013e f61d dc3d ad9f 273e 2b3c bbbd
000003e0: 95c4 14be 844c 193d 339d 2bbc 7358 bf3c
000003f0: 5148 7abd 76b3 58bd 920b a53c 5ed3 923d

transformer.layers.0.self_attn.out_proj.bias f4 [64]
0.009406644 0.005636738 0.09207383 0.03389835 -0.011204611 -0.0069996812 0.059295736 -0.013706867
-0.046352237 0.023318307 -0.01212022 -0.025352368 -0.011297613 -0.0028928444 -0.036262333 0.01880564
0.010150563 -0.02544512 -0.00551677 0.026264286 -0.008581679 -0.0425042 0.030096928 -0.0057755886
-0.047641218 0.025601013 0.011053432 0.026940215 -0.04619559 -0.013263095 -0.02472297 0.0015047875
0.0005314046 -0.0022334107 -0.016023617 0.09965584 -0.0054478673 -0.016784176 -0.0072164265 0.0025551126
-7.899871e-06 0.0026514246 0.06413234 -0.016888956 -0.05573836 -0.007898834 0.007252558 0.00862541
-0.009364989 -0.0074242945 -0.003996679 0.0041172476 0.011228753 0.06107668 0.027676826 0.005480753
0.011081714 -0.017782789 0.070745565 0.028056283 -0.018569376 -0.04020041 3.0161176e-05 -0.0036951022
00000000: 531e 1a3c 63b4 b83b 3491 bc3d ffd8 0a3d
00000010: 8b93 37bc 955d e5bb 16e0 723d c492 60bc
00000020: d8db 3dbd 0906 bf3c e393 46bc c5af cfbc
00000030: a019 39bc e095 3dbb d087 14bd 490e 9a3c
00000040: 8c4e 263c 4972 d0bc 05c6 b4bb 3328 d73c
00000050: 2c9a 0cbc e218 2ebd d58d f63c 2641 bdbb
00000060: 7023 43bd 37b9 d13c 7419 353c bab1 dc3c
00000070: 9637 3dbd 744d 59bc d387 cabc 4a3c c53a
00000080: f64d 0b3a 6a5e 12bb f643 83bc 5c18 cc3d
00000090: 0684 b2bb f87e 89bc c677 ecbb ad73 273b
000000a0: b089 04b7 86c3 2d3b d157 833d b55a 8abc
000000b0: e84d 64bd 1c6a 01bc dea6 ed3b 9751 0d3c
000000c0: 9c6f 19bc 7f47 f3bb 93f6 82bb fae9 863b
000000d0: cef8 373c 8a2b 7a3d 83ba e23c e397 b33b
000000e0: 1490 353c 36ad 91bc 0de3 903d 4ad6 e53c
000000f0: ce1e 98bc 2fa9 24bd a202 fd37 8729 72bb

transformer.layers.0.linear1.weight f4 [128, 64]
-0.004845396 -0.06728432 0.048959844 0.0066072573 -0.15238026 -0.11822296 -0.027318394 -0.1287582
0.12726872 0.11861201 0.045454126 -0.06894622 0.12944478 -0.022106348 -0.071495265 -0.11111323
-0.031071965 -0.03991297 -0.05588762 -0.14833494 -0.109207556 0.023551164 0.068312444 0.012514742
-0.045984436 0.026259238 0.11525419 0.012420904 0.07736864 -0.084448 -0.023462756 0.022415932
-0.11025229 0.028483694 0.003923827 -0.07624179 -9.2348375e-05 0.04748308 0.037782624 0.17154613
-0.029835815 0.028300237 0.02803156 -0.06647654 -0.063687705 -0.0655472 -0.101304136 0.08396445
0.12672794 0.066490576 0.004165851 -0.029901396 0.083794765 -0.111159466 -0.011518297 -0.109890886
-0.035440862 0.097558945 0.10188059 -0.09604344 -0.012020203 0.07626708 0.09534974 0.025686877
0.1207187 0.02779846 0.029725598 -0.05046693 0.10971959 0.06951076 0.10417576 0.035732377
0.0818157 0.031697273 0.01904255 0.115976684 -0.11561279 0.036336474 -0.05690373 0.1329516
-0.12805733 -0.034041792 0.13666734 0.108236164 -0.07776469 -0.07060575 0.030143999 0.011263417
-0.10977403 0.05047162 -0.11353449 0.101778984 -0.075732954 -0.017327521 -0.01951565 0.08215119
0.109116994 0.020447228 0.0671435 0.08070698 -0.16605277 -0.041463483 0.094444655 -0.11876882
-0.0015437446 -0.023650065 0.068261586 -0.15685935 0.07039505 0.10594932 -0.067483366 -0.10906005
0.08770436 0.008257661 -0.05862543 0.05975561 -0.032738883 -0.07737482 -0.12609752 0.046464052
0.027021866 0.011568953 0.005873707 -0.006124039 -0.08949157 -0.06481878 0.10462661 0.058343526
0.00019038162 0.12052557 0.12163347 -0.075342 0.041260995 -0.069135 -0.08285645 0.062480792
-0.02210657 0.13992411 -0.10606087 -0.14650336 0.13864705 -0.004305514 -0.13161275 -0.075611524
0.04160976 0.074665375 -0.12322623 -0.040649984 0.032796852 0.021481905 -0.03578967 -0.028225366
0.10712699 -0.02704485 -0.0037629711 0.04646873 -0.08255443 -0.032463584 0.060782745 -0.023613943
-0.011578342 -0.014112106 0.025879141 -0.07791854 0.02757562 0.0023318802 -0.11144891 0.08282961
-0.02251945 0.09111615 0.06342002 -0.023530606 -0.124150075 -0.091393106 0.028677477 -0.08354655
0.107252195 0.07129716 -0.11803272 0.05100768 0.14336647 0.008416766 0.066169955 0.03271972
0.027870703 -0.11380838 -0.001457527 -0.05321228 -0.030186597 0.0042158924 -0.078813635 0.06929848
-0.11535733 -0.2537108 0.007499504 0.009728772 0.07429223 -0.039063275 0.13416055 -0.050124485
-0.12634681 -0.016805315 0.16876741 -0.017170763 0.02361922 0.07739156 -0.06936404 0.07333866
-0.09430196 -0.25201708 0.0064274683 -0.11116153 0.00095835037 -0.0037401617 -0.13523255 0.05360251
-0.01683163 0.082969934 0.1538969 0.035627637 0.11144086 -0.06010713 -0.025770366 -0.13435669
0.031468354 0.19268742 0.03916038 0.024185242 0.09513936 0.11599887 -0.13958389 0.07775029
-0.19787437 0.20379345 -0.07421515 0.06339678 -0.1021809 -0.18756115 0.15456937 -0.00580935
0.17813034 0.18136916 -0.18188365 -0.042768728 0.08015195 -0.0026544272 0.029875727 -0.0991147
-0.19659421 -0.034721963 -0.08305871 0.07776385 0.0036092238 0.063566506 -0.062159035 -0.08527009
00000000: 21c6 9ebb 5dcc 89bd 1e8a 483d b181 d83b
00000010: 9209 1cbe e11e f2bd d3ca dfbc 31d9 03be
00000020: bb52 023e daea f23d 1b2e 3a3d ad33 8dbd
00000030: 2c8d 043e 5f18 b5bc 1c6c 92bd 558f e3bd
00000040: a28a febc c87b 23bd 6bea 64bd 1de5 17be
00000050: 36a8 dfbd 5fee c03c 65e7 8b3d a20a 4d3c
00000060: 2d5a 3cbd 9d1d d73c 640a ec3d 0c81 4b3c
00000070: 7373 9e3d 13f3 acbd f734 c0bc 9ea1 b73c
00000080: f4cb e1bd a356 e93c 7293 803b a824 9cbd
00000090: 28ab c1b8 9e7d 423d f4c1 1a3d caa9 2f3e
000000a0: 3d6a f4bc e6d5 e73c 71a2 e53c da24 88bd
000000b0: b36e 82bd 9c3d 86bd 8b78 cfbd 8ef5 ab3d
000000c0: f8c4 013e 362c 883d b181 883b c6f3 f4bc
000000d0: 979c ab3d 93a7 e3bd 3db7 3cbc 790e e1bd
000000e0: 702a 11bd fccc c73d c5a6 d03d 6cb2 c4bd
000000f0: 63f0 44bc ea31 9c3d b946 c33d 496d d23c
00000100: 5e3b f73d 99b9 e33c 1983 f33c 69b6 4ebd
00000110: aab4 e03d a85b 8e3d 1a5a d53d 1d5c 123d
00000120: fd8e a73d 00d5 013d 1fff 9b3c 2f85 ed3d
00000130: 66c6 ecbd 8ed5 143d e313 69bd 7724 083e
00000140: 7621 03be 686f 0bbd 86f2 0b3e ecaa dd3d
00000150: 1843 9fbd bf99 90bd 8cf0 f63c 328a 383c
00000160: 35d1 e0bd 54bb 4e3d c584 e8bd 8071 d03d
00000170: e119 9bbd 72f2 8dbc 49df 9fbc e23e a83d
00000180: bb78 df3d f280 a73c 8882 893d b349 a53d
00000190: bd09 2abe 9dd5 29bd 336c c13d 113d f3bd
000001a0: 7957 caba c8bd c1bc bbcc 8b3d bd9f 20be
000001b0: 482b 903d f5fb d83d b834 8abd e05a dfbd
000001c0: 589e b33d 244b 073c 3821 70bd 4cc2 743d
000001d0: 3519 06bd b176 9ebd b51f 01be 1751 3e3d
000001e0: f65c dd3c b58b 3d3c 3a78 c03b 2aac c8bb
000001f0: 5b47 b7bd b5bf 84bd 7a46 d63d 9ff9 6e3d
00000200: 2da1 4739 1cd6 f63d f81a f93d e84c 9abd
00000210: 4a01 293d a796 8dbd a4b0 a9bd dceb 7f3d
00000220: d618 b5bc 4448 0f3e 7136 d9bd fa04 16be
00000230: 7ef9 0d3e 4515 8dbb 7ec5 06be 37da 9abd
00000240: ff6e 2a3d 29ea 983d 095e fcbd 9980 26bd
00000250: fe55 063d d2fa af3c 3098 12bd e238 e7bc
00000260: 6565 db3d 298d ddbc 2e9c 76bb ff55 3e3d
00000270: 4c12 a9bd 89f8 04bd 54f7 783d 0772 c1bc
00000280: 16b3 3dbc 7636 67bc 7e00 d43c c193 9fbd
00000290: 44e6 e13c 75d2 183b 533f e4bd 92a2 a93d
000002a0: b67a b8bc 1b9b ba3d 5be2 813d 42c3 c0bc
000002b0: 6542 febd 4f2c bbbd 07ed ea3c 741a abbd
000002c0: 0aa7 db3d 3f04 923d 24bb f1bd 6eed 503d
000002d0: a9ce 123e 7ae6 093c 1d84 873d 1d05 063d
000002e0: 1a51 e43c 5e14 e9bd 7e0a bfba 1ff5 59bd
000002f0: e249 f7bc 7825 8a3b 0b69 a1bd 5dec 8d3d
00000300: 7740 ecbd 62e6 81be 66be f53b 6d65 1f3c
00000310: 8626 983d d000 20bd 6261 093e 554f 4dbd
00000320: 0f61 01be 4dab 89bc 5dd1 2c3e b3a9 8cbc
00000330: 187d c13c 777f 9e3d bc0e 8ebd 9432 963d
00000340: 6321 c1bd 6208 81be 839d d23b a8a8 e3bd
00000350: ce39 7b3a 801d 75bb 677a 0abe 4e8e 5b3d
00000360: 7de2 89bc 24ec a93d 2697 1d3e 49ee 113d
00000370: 1b3b e43d e532 76bd 601c d3bc cd94 09be
00000380: f6e4 003d da4f 453e a266 203d 2120 c63c
00000390: 6dd8 c23d d190 ed3d 14ef 0ebe 8b3b 9f3d
000003a0: 949f 4abe 3baf 503e 1dfe 97bd 2cd6 813d
000003b0: 3844 d1bd 0810 40be 6f47 1e3e 5c5c bebb
000003c0: cd67 363e d6b8 393e b53f 3abe 432e 2fbd
000003d0: b526 a43d e6f5 2dbb f1bd f43c a6fc cabd
000003e0: fe4f 49be 9e38 0ebd af1a aabd a742 9f3d
000003f0: ba88 6c3b 282f 823d 799a 7ebd 16a2 aebd

transformer.layers.0.linear1.bias f4 [128]
0.06254602 -0.13058215 -0.12565358 0.06061169 0.036153235 -0.037270516 0.05846549 0.053667627
-0.027138233 0.029487748 0.0076533197 -0.050176803 -0.11532605 -0.0018452866 0.022301458 -0.04753831
-0.06579364 0.09829597 0.08413777 0.03472005 -0.09450732 0.036268223 0.011287675 0.0730299
-0.040985126 0.0041985493 -0.050307985 -0.14582437 -0.04761877 -0.081108354 0.0882001 0.085548654
0.054083087 0.02416953 0.018501773 -0.027797649 -0.011352507 -0.12931605 0.0982962 0.04047755
-0.117623 0.004688823 -0.024518346 -0.10562157 0.03989324 0.002328498 -0.056756753 0.0341057
0.04096852 0.10402357 -0.11964418 0.011556406 -0.078711584 0.07935225 -0.11597362 -0.06918621
-0.10775212 0.10099742 0.045081746 -0.12615965 0.06311994 0.00906815 -0.11452907 -0.08822151
-0.09722087 -0.078094244 0.039085146 -0.0085837385 0.035616394 0.06395363 -0.13554916 0.06243199
0.06092965 -0.010500158 -0.07606375 -0.1085533 -0.108048424 0.07334501 -0.018781424 -0.04638034
0.035507713 -0.048735224 -0.06200484 0.10660109 0.092570424 0.024493234 -0.027158417 -0.07702281
-0.02301696 -0.14486822 0.06182203 -0.07689077 0.050739676 -0.0034179469 0.040496375 0.04421315
-0.041598678 0.099221334 0.038371254 -0.073707834 -0.019630745 -0.0005585256 0.083924726 -0.12325355
-0.0154307345 -0.017991873 0.12465379 0.018939383 0.026113976 -0.117476165 -0.058970004 0.048272587
0.08197088 -0.120854266 -0.08703452 -0.16269965 -0.09134841 -0.09962517 0.034264933 -0.0040437183
0.04851005 0.06645578 0.02644854 -0.10248542 0.022977035 -0.050208963 -0.11676414 -0.0690237
00000000: 2118 803d 54b7 05be 55ab 00be f743 783d
00000010: 6a15 143d f8a8 18bd 8279 6f3d 96d2 5b3d
00000020: 0051 debc 4a90 f13c b3c8 fa3b 3186 4dbd
00000030: 1030 ecbd 8bdd f1ba 8cb1 b63c 88b7 42bd
00000040: d1be 86bd 664f c93d 6c50 ac3d 9c36 0e3d
00000050: 0e8d c1bd fd8d 143d f1ef 383c b390 953d
00000060: 05e0 27bd fc93 893b bf0f 4ebd fc52 15be
00000070: e60b 43bd 231c a6bd 41a2 b43d 2234 af3d
00000080: 3a86 5d3d 2eff c53c 0891 973c e5b7 e3bc
00000090: deff 39bc 6d6b 04be 854f c93d cacb 253d
000000a0: 54e4 f0bd b3a4 993b b3da c8bc 1f50 d8bd
000000b0: 1867 233d b799 183b c579 68bd 6bb2 0b3d
000000c0: 9bce 273d 4f0a d53d 0208 f5bd 1457 3d3c
000000d0: 8a33 a1bd 6f83 a23d 9483 edbd 80b1 8dbd
000000e0: 25ad dcbd bcd7 ce3d a3a7 383d ff2f 01be
000000f0: 0745 813d 9492 143c 388e eabd 7bad b4bd
00000100: bc1b c7bd e0ef 9fbd bf17 203d cfa2 0cbc
00000110: 7fe2 113d 1ffa 823d 66cd 0abe b0b8 7f3d
00000120: 5e91 793d db08 2cbc 50c7 9bbd 3151 debd
00000130: 7e48 ddbd e935 963d 80db 99bc 50f9 3dbd
00000140: 8970 113d 969e 47bd c9f8 7dbd ac51 da3d
00000150: 9095 bd3d 09a6 c83c 547b debc 23be 9dbd
00000160: 108e bcbc 5658 14be 1939 7d3d e878 9dbd
00000170: 68d4 4f3d a2ff 5fbb 87df 253d d918 353d
00000180: 6063 2abd 8e34 cb3d 2d2b 1d3d 22f4 96bd
00000190: a8d0 a0bc 056a 12ba bae0 ab3d 5b6c fcbd
000001a0: 31d1 7cbc b163 93bc 7c4a ff3d c426 9b3c
000001b0: faec d53c 5897 f0bd 888a 71bd 7ab9 453d
000001c0: 59e0 a73d 7182 f7bd 283f b2bd bd9a 26be
000001d0: e014 bbbd 4808 ccbd 6359 0c3d 2b81 84bb
000001e0: 79b2 463d f819 883d 9caa d83c e0e3 d1bd
000001f0: 563a bc3c eaa7 4dbd 0a22 efbd 4c5c 8dbd

transformer.layers.0.linear2.weight f4 [64, 128]
-0.031405747 0.004630415 -0.08125108 0.09193908 -0.0013814215 -0.005697458 0.03480937 -0.05093367
-0.010020798 0.018296309 0.06530536 -0.0053194575 -0.064862095 0.06832774 0.06654335 0.018155513
-0.1217977 0.007604961 0.08749059 0.0021869177 -0.065187134 -0.008784601 -0.0133476285 0.05110894
0.08710857 -0.08355145 -0.016865624 -0.12068642 0.06784155 0.056984298 -0.027769983 -0.014848782
-0.05368941 0.046537615 0.059103422 -0.029702935 0.10159247 -0.06332212 -0.031247973 0.08693918
-0.02884813 0.23176317 -0.05257804 -0.09630019 -0.007751186 0.14228053 0.019890223 -0.13381392
0.07349393 0.1059547 -0.06820619 -0.057700012 0.062202077 0.12308068 -0.0016864543 0.064242706
-0.08263061 -0.032916546 0.06807484 0.059833165 -0.040145423 0.06282442 0.013033339 0.00461559
0.03437393 0.016385218 0.042702764 0.10855139 0.029631225 0.090568185 -0.034801457 0.04364767
-0.06023677 0.0013849005 -0.061416075 0.05763265 -0.08465655 -0.06782817 -0.025627406 0.07702805
-0.021218758 -0.044865277 -0.03463872 -0.051011045 -0.018396407 -0.042953633 0.031182358 0.030898606
0.08658885 -0.029817889 0.064662345 0.104344204 -0.07369696 0.06102733 0.03125845 0.1038569
0.08082719 0.05829816 -0.042570926 0.007844798 -0.04742529 -0.0008310435 0.063459665 -0.021195313
-0.080675475 -0.02667293 0.058813114 -0.066081226 -0.018584896 0.032565694 -0.016274892 0.060582332
0.0049106744 0.03931796 0.067868516 -0.05008345 -0.10706625 -0.033432886 0.036709957 -0.079189464
0.10979045 -0.017914318 -0.0013610944 -0.062063232 -0.060666505 0.045433845 -0.05882962 -0.083009474
-0.060837187 -0.014061506 -0.03576283 -0.17451197 0.035478715 0.027514597 -0.01888511 0.0374204
-0.15440388 -0.009850145 0.14330503 -0.07185205 -0.056443162 0.049344618 0.08202548 -0.029466253
-0.03585645 0.00039325497 0.049461316 -0.032861613 0.06956615 -0.036816448 0.00054708193 0.06488563
-0.047101516 0.035125725 -0.04238802 0.036935214 -0.018664848 -0.023711339 -0.13234663 -0.054159276
-0.03435293 -0.00088773057 0.020031104 -0.031609792 0.08969033 -0.047087897 -0.009893672 0.041382644
-0.01964487 -0.11365029 0.029476106 -0.115275525 0.0010447125 0.00650501 -0.09112621 0.04121754
-0.06064139 0.07683357 -0.028871838 0.04231263 0.030782035 0.06445282 -0.10800566 -0.10665261
-0.10512016 0.02729382 0.0058030756 -0.088734925 0.047535848 0.025171088 0.0693785 0.048488256
0.037418716 -0.07141728 -0.07894459 -0.080308124 0.10249891 0.051327705 -0.037142858 -0.096535996
0.057424363 0.060231004 0.105143994 0.05373332 -0.06976311 0.06951826 -0.06918106 0.049301356
-0.02586785 0.035078615 0.07905148 -0.09368022 0.06936407 0.026512973 0.059813406 -0.11235197
-0.015914412 -0.003930783 -0.0026848614 -0.017947767 -0.010965758 0.0018267262 0.10173487 -0.013258975
0.036028262 -0.06956172 -0.011477555 0.035069387 0.010469288 -0.07454381 0.0035354788 0.012444277
0.050989024 0.02774755 -0.050168607 -0.018065326 0.057034615 0.011569281 0.07581812 -0.023327129
0.115222864 0.0568892 -0.03917196 -0.0040794224 -0.02772073 0.02272198 -0.06709081 -0.04310043
0.034013376 -0.010064013 -0.19069736 -0.04272819 0.08047475 -0.06713647 -0.04703935 -0.05442648
00000000: 50a3 00bd bcba 973b f766 a6bd 8e4a bc3d
00000010: d010 b5ba beb1 babb 4594 0e3d d39f 50bd
00000020: 462e 24bc 24e2 953c d1be 853d d84e aebb
00000030: 6bd6 84bd 6aef 8b3d e147 883d dfba 943c
00000040: 1371 f9bd 0933 f93b 442e b33d 6452 0f3b
00000050: d580 85bd 4aed 0fbc 03b0 5abc 9c57 513d
00000060: fa65 b23d 061d abbd c729 8abc 712a f7bd
00000070: 83f0 8a3d 5e68 693d e07d e3bc 4e48 73bc
00000080: 6de9 5bbd 3a9e 3e3d 6e16 723d 9253 f3bc
00000090: b70f d03d 07af 81bd c0fb ffbc 2b0d b23d
000000a0: ea52 ecbc 5353 6d3e 125c 57bd 0939 c5bd
000000b0: a9fd fdbb fdb1 113e d2f0 a23c 8406 09be
000000c0: fc83 963d c7fe d83d b0af 8bbd d956 6cbd
000000d0: 9bc7 7e3d b911 fc3d 040c ddba ae91 833d
000000e0: 3d3a a9bd 80d3 06bd d26a 8b3d 9f13 753d
000000f0: 876f 24bd 17aa 803d c989 553c 603e 973b
00000100: aecb 0c3d 4b3a 863c 18e9 2e3d 3150 de3d
00000110: 2fbd f23c d07b b93d f98b 0ebd e6c7 323d
00000120: d5ba 76bd 8d85 b53a 6c8f 7bbd 3710 6c3d
00000130: 6a60 adbd 7fe9 8abd 91f0 d1bc e2c0 9d3d
00000140: f6d2 adbc a7c4 37bd 55e1 0dbd f5f0 50bd
00000150: 10b4 96bc 26f0 2fbd 2572 ff3c 131f fd3c
00000160: 7f55 b13d a544 f4bc b16d 843d 6ab2 d53d
00000170: 6fee 96bd cbf7 793d dc08 003d edb2 d43d
00000180: ba88 a53d 0dca 6e3d da5e 2ebd 7887 003c
00000190: 0541 42bd 63da 59ba 24f7 813d cba1 adbc
000001a0: 2f39 a5bd 3081 dabc 05e6 703d 9855 87bd
000001b0: 5a3f 98bc 9b63 053d ec52 85bc 2e25 783d
000001c0: b9e9 a03b df0b 213d a6fe 8a3d 4e24 4dbd
000001d0: 8d45 dbbd ecf0 08bd 2e5d 163d 162e a2bd
000001e0: d1d9 e03d 0cc1 92bc c066 b2ba 0436 7ebd
000001f0: 717d 78bd d718 3a3d 54f7 70bd df00 aabd
00000200: 6a30 79bd 3b62 66bc 0c7c 12bd 44b3 32be
00000210: 2152 113d 4b66 e13c f2b4 9abc 2246 193d
00000220: 0d1c 1ebe 8162 21bc 8ebe 123e 2b27 93bd
00000230: f230 67bd 951d 4a3d fafc a73d 3663 f1bc
00000240: 37de 12bd ca2d ce39 f397 4a3d e699 06bd
00000250: b378 8e3d d8cc 16bd 0c6a 0f3a c2e2 843d
00000260: 85ed 40bd fedf 0f3d 0f9f 2dbd 6149 173d
00000270: 06e7 98bc 483e c2bc e085 07be 1ed6 5dbd
00000280: a8b5 0cbd 97b6 68ba 4518 a43c 4579 01bd
00000290: 90af b73d 3ddf 40bd 1119 22bc d980 293d
000002a0: 47ee a0bc 7cc1 e8bd e077 f13c 9315 ecbd
000002b0: bcee 883a fb27 d53b 61a0 babd b9d3 283d
000002c0: 1b63 78bd eb5a 9d3d a284 ecbc 0250 2d3d
000002d0: 9b2a fc3c d7ff 833d 1232 ddbd af6c dabd
000002e0: 3d49 d7bd 4a97 df3c ba27 be3b a8ba b5bd
000002f0: f3b4 423d 9933 ce3c 5116 8e3d 9f9b 463d
00000300: 5e44 193d 3943 92bd b4ad a1bd 9678 a4bd
00000310: f3ea d13d 003d 523d 1c23 18bd aab4 c5bd
00000320: cf35 6b3d c9b4 763d bc55 d73d 7817 5c3d
00000330: f6df 8ebd 975f 8e3d cdae 8dbd 38f0 493d
00000340: d0e8 d3bc 98ae 0f3d bee5 a13d 6adb bfbd
00000350: c00e 8e3d bc31 d93c e7fe 743d ca18 e6bd
00000360: f15e 82bc cccd 80bb 80f4 2fbb 3207 93bc
00000370: b9a9 33bc c36e ef3a 5f5a d03d 2c3c 59bc
00000380: 5f92 133d 6076 8ebd 5b0c 3cbc eba4 0f3d
00000390: 6087 2b3c 6daa 98bd 7eb3 673b 15e3 4b3c
000003a0: ded9 503d d44e e33c 997d 4dbd bcfd 93bc
000003b0: 219d 693d 158d 3d3c 8846 9b3d 8918 bfbc
000003c0: f7f9 eb3d a604 693d c772 20bd adac 85bb
000003d0: 9616 e3bc 7223 ba3c e866 89bd 148a 30bd
000003e0: 9c51 0b3d 88e3 24bc 2b46 43be c103 2fbd
000003f0: f2cf a43d d87e 89bd 55ac 40bd 4dee 5ebd

transformer.layers.0.linear2.bias f4 [64]
-0.08633161 0.033841282 0.14917226 0.08398144 0.02396062 0.061401572 0.065357946 0.013376049
-0.0077511524 0.065664984 -0.04439141 -0.06824605 -0.018565979 0.05269236 0.035634574 -0.048073366
0.01949618 -0.050608225 -0.03692625 -0.054205824 0.022244753 -0.07787737 0.015772961 -0.009885178
-0.018025927 0.012739695 -0.034523606 -0.0017890995 -0.18169567 -0.027472477 -0.025885552 -0.0191315
-0.01054215 -0.06862295 -0.06386699 0.07922195 -0.044273905 -0.038670313 0.020417294 0.05761471
-0.043384727 -0.040433653 -0.039666723 0.04287625 -0.03629751 -0.03069544 0.0034210624 -0.013823357
0.07090371 0.044221375 -0.049031176 0.048468944 0.09691665 -0.014364483 -0.019359015 0.02955428
-0.012232499 0.008021565 0.11203914 0.072804645 0.041729107 -0.051923804 0.069564246 0.017858336
00000000: a1ce b0bd 289d 0a3d 9dc0 183e 76fe ab3d
00000010: 1049 c43c 3780 7b3d 63da 853d 3727 5b3c
00000020: 61fd fdbb 5d7b 863d c4d3 35bd 96c4 8bbd
00000030: ae17 98bc f2d3 573d 8ff5 113d 94e8 44bd
00000040: 74b6 9f3c 924a 4fbd fb3f 17bd ed06 5ebd
00000050: a13a b63c 2c7e 9fbd 4c36 813c 71f5 21bc
00000060: 1cab 93bc 27ba 503c a068 0dbd 3880 eaba
00000070: 6e0e 3abe f60d e1bc f00d d4bc aab9 9cbc
00000080: fbb8 2cbc 308a 8cbd b2cc 82bd 1e3f a23d
00000090: 8e58 35bd c364 1ebd 2b42 a73c 67fd 6b3d
000000a0: 2fb4 31bd c29d 25bd 9379 22bd 029f 2f3d
000000b0: b3ac 14bd 0175 fbbc e733 603b 5d7b 62bc
000000c0: f735 913d 7921 353d ead4 48bd 5f87 463d
000000d0: 3d7c c63d 0259 6bbc cc96 9ebc d11b f23c
000000e0: d26a 48bc e26c 033c c774 e53d 9a1a 953d
000000f0: 24ec 2a3d 0eae 54bd b377 8e3d a54b 923c

transformer.layers.0.norm1.weight f4 [64]
0.9881065 1.1253608 0.8910636 0.9612782 0.99195796 1.0183603 0.90830594 1.0425136
0.93923277 1.0590035 1.0972846 1.0965453 1.1355783 0.96631145 0.9884308 0.96450347
1.056789 1.0802302 0.9737535 1.0049918 0.9872802 0.9985294 0.98399407 1.016136
0.9234827 0.96079725 1.0135518 0.8918798 0.9102062 1.0147129 0.9402515 1.0598423
0.94233596 1.0915774 1.0493178 0.8618965 1.0077966 0.9521303 1.0352268 1.0254114
1.0767082 1.1166401 0.8989533 0.9873685 1.0614815 1.091199 1.2200395 1.0491682
1.0774492 1.0023025 0.99716085 1.1057831 1.0194154 0.91983557 1.0333 1.1124703
1.0511295 0.99610543 0.88142484 0.91662574 1.0207244 0.94034594 0.9972364 1.0192773
00000000: 8cf4 7c3f d30b 903f be1c 643f 5416 763f
00000010: f5f0 7d3f a159 823f bd86 683f 1671 853f
00000020: 8f71 703f 6d8d 873f d273 8c3f 995b 8c3f
00000030: a15a 913f 3060 773f cd09 7d3f b3e9 763f
00000040: dd44 873f fc44 8a3f e947 793f 92a3 803f
00000050: 65be 7c3f 9f9f 7f3f 09e7 7b3f bf10 823f
00000060: 5d69 6c3f cff6 753f 11bc 813f 3c52 643f
00000070: 4603 693f 1de2 813f 53b4 703f eaa8 873f
00000080: ee3c 713f cfb8 8b3f 0c50 863f 40a5 5c3f
00000090: 7bff 803f d0be 733f 5082 843f ae40 833f
000000a0: 93d1 893f 10ee 8e3f ce21 663f 2fc4 7c3f
000000b0: a0de 873f 69ac 8b3f 412a 9c3f 254b 863f
000000c0: dbe9 893f 734b 803f ef45 7f3f 4d8a 8d3f
000000d0: 347c 823f 587a 6b3f 2d43 843f 6d65 8e3f
000000e0: 698b 863f c400 7f3f 0fa5 613f fca7 6a3f
000000f0: 19a7 823f 83ba 703f e24a 7f3f ae77 823f

transformer.layers.0.norm1.bias f4 [64]
0.0057386463 -0.003500773 0.10747864 0.06909843 -0.012972796 0.0011746234 0.10975826 -0.027568715
-0.077161014 0.011443372 -0.0003937846 -0.029360399 0.075323105 0.016179966 -0.045539603 0.097302
0.005092168 -0.03116701 -0.044223458 0.033209328 -0.02051301 -0.050724294 0.05614465 0.03874146
-0.09529936 0.0449774 0.029501887 0.11975259 -0.11304643 -0.04784044 -0.06670579 -0.024435066
0.07157914 -0.0049409703 -0.029785935 0.14024223 -0.02526544 -0.024053872 -0.011185408 0.027660184
-0.021843288 -0.0009524089 0.08719084 -0.032820154 -0.053883657 -0.016671492 0.024357244 0.010889161
0.02600975 0.03566961 -0.04098422 -0.04254097 0.05172429 0.10958354 0.033342183 0.012222402
-0.028289247 -0.04803221 0.116006576 0.083707355 -0.103585474 -0.06392332 -0.0070367814 -0.025443263
00000000: 410b bc3b 3a6d 65bb c31d dc3d 7a83 8d3d
00000010: da8b 54bc d2f5 993a f0c8 e03d c9d7 e1bc
00000020: 9806 9ebd fb7c 3b3c e074 ceb9 3885 f0bc
00000030: 0043 9a3d d98b 843c bc87 3abd 4546 c73d
00000040: 34dc a63b f551 ffbc a823 35bd 8106 083d
00000050: e60a a8bc 47c4 4fbd eff7 653d 5daf 1e3d
00000060: 502c c3bd 393a 383d f1ad f13c d940 f53d
00000070: e384 e7bd 56f4 43bd 0c9d 88bd 0c2c c8bc
00000080: 1698 923d dde7 a1bb a201 f4bc a99b 0f3e
00000090: 78f9 cebc a00c c5bc 0043 37bc 9c97 e23c
000000a0: b2f0 b2bc 14ab 79ba 1c91 b23d 6d6e 06bd
000000b0: 1cb5 5cbd a792 88bc d888 c73c 7468 323c
000000c0: 6612 d53c 4c1a 123d 12df 27bd 713f 2ebd
000000d0: d9dc 533d 566d e03d d091 083d 7840 483c
000000e0: dabe e7bc 6cbd 44bd db94 ed3d c36e ab3d
000000f0: 9f24 d4bd 3bea 82bd cd94 e6bb 646e d0bc

transformer.layers.0.norm2.weight f4 [64]
1.0118196 1.0656953 0.95775825 0.98123246 0.9681345 1.0196667 0.94158816 1.0471243
0.96171933 1.0648578 1.1093398 1.0632032 1.1236151 0.99315447 1.0187595 0.98205924
1.0275978 1.1129321 0.98294497 1.0165992 1.0249586 1.0398985 1.0433421 1.020399
0.9243607 0.9750454 1.0202639 0.97440976 0.94519895 1.0421522 0.9824709 1.0893838
0.98128474 1.0352361 1.1114917 0.91629404 1.0245262 0.9907643 0.9975548 1.0009613
1.0597425 1.0698907 0.9902739 1.0310788 1.1069379 1.0475397 1.1114162 1.0462166
1.0762197 1.0116634 0.98059064 1.0524844 1.0821187 0.9602159 1.0584985 1.1281588
1.0241343 1.0244412 0.93982744 0.9735868 1.0856243 0.9644474 0.9930585 1.0229931
00000000: 4e83 813f b468 883f a52f 753f 0d32 7b3f
00000010: aad7 773f 7084 823f ec0b 713f 2b08 863f
00000020: 3d33 763f 434d 883f d9fe 8d3f 0b17 883f
00000030: 9fd2 8f3f 5f3f 7e3f b666 823f 3c68 7b3f
00000040: 5388 833f 8f74 8e3f 48a2 7b3f ec1f 823f
00000050: d831 833f 651b 853f 3c8c 853f 6f9c 823f
00000060: e7a2 6c3f 939c 793f 0298 823f eb72 793f
00000070: 8ff8 713f 3e65 853f 3783 7b3f ee70 8b3f
00000080: 7a35 7b3f 9e82 843f 5c45 8e3f 3f92 6a3f
00000090: ad23 833f bba2 7d3f c05f 7f3f 801f 803f
000000a0: a4a5 873f 2ef2 883f 9782 7d3f 64fa 833f
000000b0: 24b0 8d3f c815 863f e342 8e3f 6dea 853f
000000c0: 91c1 893f 307e 813f fd07 7b3f cfb7 863f
000000d0: de82 8a3f b6d0 753f e17c 873f 8267 903f
000000e0: d516 833f e420 833f 8898 703f fc3c 793f
000000f0: bdf5 8a3f 06e6 763f 1539 7e3f 70f1 823f
