docs/spectra-luna/model/SpectralTransformer.onnx (onnx, 359595 bytes, 29 tensors)

pos_embed f4 [1, 200, 64]
000000 a7 4f 61 be 74 27 3d 3d 80 e3 c7 bc d8 38 03 be
       -0.22003041 0.046180204 -0.024400473 -0.12814653
000010 48 c3 c8 bd 32 16 9e be 8b d3 9c bd b5 68 14 be
       -0.09802872 -0.3087631 -0.07657536 -0.14493068
000020 a7 78 65 3e 9f af c3 3c 96 23 d8 bd c5 9a ba bd
       0.22409306 0.023887454 -0.105536625 -0.09111551
000030 4f 1d b3 3e 93 a5 03 be 94 cf 42 be a8 8f cc 3d
       0.34983298 -0.1285613 -0.19024497 0.09988338
000040 82 37 a3 3b c2 5f 8d 3b 0c ba a3 bd 4e fa 7f be
       0.0049809823 0.0043143937 -0.0799447 -0.24997827
000050 83 e3 11 3e 93 bd 97 3e e8 a4 15 3d 8d ec 4f 3c
       0.14246945 0.2963682 0.03653422 0.012690675
000060 7b 6d d8 3e 46 9c 5d be 09 aa 8a 3d 4b ff 91 be
       0.42271027 -0.21641645 0.06770713 -0.28515086
000070 a2 4b 80 39 46 0a ea bc 72 4d 9d bd 29 33 b6 bd
       0.00024470413 -0.028569352 -0.07680787 -0.08896477
000080 9c a1 ba 3e e8 b4 09 bd a3 c6 93 3d dc 89 93 bd
       0.36451423 -0.03361979 0.07215621 -0.07204029
000090 b1 5f 7b 3e d7 3c 03 3e d5 0e 8d be c9 5b 44 bc
       0.24548222 0.12816177 -0.27550378 -0.011984774
0000a0 79 e1 19 3d b3 9a d9 bc b9 f3 78 be 58 83 77 3e
       0.037568543 -0.026563024 -0.24311723 0.24171197
0000b0 79 67 f1 3d 53 7c 87 3d 61 32 09 be 84 43 c5 3d
       0.11787314 0.0661551 -0.13398124 0.09632018
0000c0 52 5e 85 bd 71 10 10 3e db 93 28 3c 87 10 69 bd
       -0.06512131 0.14068772 0.010289158 -0.056900527
0000d0 c3 c1 80 3e 65 9d 94 be ff c6 53 3e 53 da 6d be
       0.25147828 -0.29026332 0.2068138 -0.23227815
0000e0 26 65 4a 3c 2b 1d 92 3d 81 c6 99 be e3 5b 73 be
       0.012353217 0.071344696 -0.3003426 -0.23765521
0000f0 72 f2 4c be f9 b2 16 3e 26 4f 4b be 98 3e 37 bc
       -0.2001436 0.1471671 -0.19854411 -0.011184357
000100 3d 50 eb bd 70 bf ee bd d8 5d 86 3c 21 de 2b 3d
       -0.114899136 -0.116576076 0.01640217 0.041959886
000110 fc c3 ab bc d0 49 73 3d 3d 7b 07 3e dc 7f 7a bc
       -0.020967476 0.059396565 0.13230605 -0.015289273
000120 c8 15 93 bd 97 98 86 bd c6 56 21 3d 70 63 34 bd
       -0.07181889 -0.06572073 0.039389394 -0.044040143
000130 04 8e 1a bd 6c 4b e4 bc fb 6c bb 3d 8a 9b c2 bc
       -0.037733093 -0.027867995 0.09151646 -0.023755807
000140 0e 1e 11 3d a4 8c a7 bd 8b 1e b5 bc c0 93 a3 3c
       0.035429053 -0.08181122 -0.02210929 0.019967914
000150 fe ee 36 3d d3 63 b8 3c d4 4c d1 bd d9 0d ad 3c
       0.044661514 0.022508537 -0.10219732 0.021124767
000160 01 6e 23 3d 85 48 18 3e b6 7b 97 bd d3 ad 86 3d
       0.03989983 0.14871414 -0.07396643 0.06576123
000170 93 ce 7d bd 39 55 a1 bd 5f 45 45 be f3 e3 28 be
       -0.061964583 -0.07877583 -0.19264744 -0.16493206
000180 1e d5 45 bd a2 f7 9a 3d 4b b7 47 3e 40 4e 59 3d
       -0.048298948 0.075667635 0.19503514 0.05305314
000190 90 2f 2a bc 6d f6 86 bd 18 e3 88 bd 47 c7 ac 3d
       -0.010387316 -0.06589971 -0.0668394 0.08436447
0001a0 92 ed 92 bd 20 11 81 3d a9 ec e1 3d 69 e6 98 bd
       -0.07174219 0.063020945 0.110314675 -0.07465822
0001b0 7b da 81 3e 97 d2 87 bd 47 a2 26 bd 72 d8 9f 38
       0.25362 -0.06631964 -0.040682103 7.622027e-05
0001c0 b5 88 27 bc 8a c3 62 3d c7 e0 e6 bd 72 e5 69 3c
       -0.010225465 0.05536226 -0.112733416 0.014275895
0001d0 66 7d 95 3c cf b2 1c 3e d2 3a 86 bd 42 22 e5 bd
       0.018248271 0.15302585 -0.06554188 -0.11188175
0001e0 de 9a b8 bc 94 4f c3 bd f4 95 b5 bc 43 27 99 3d
       -0.022534784 -0.09536663 -0.02216623 0.07478192
0001f0 6a b2 93 3d aa d3 03 3d 08 83 61 be bd 69 96 3d
       0.07211764 0.03218428 -0.2202264 0.07344387
000200 aa 06 e7 bd 15 91 2f be 86 08 cb ba 02 23 a8 bd
       -0.11280568 -0.17145188 -0.0015490211 -0.08209802
000210 51 9f cf 3c 7d a9 68 bc c8 c2 2f bd 03 ac 07 be
       0.025344523 -0.014200565 -0.042910367 -0.13249211
000220 cf 44 cc 3d f0 ab 00 be ea e7 0f 3e 7a 8a c5 3b
       0.09974062 -0.12565589 0.14053312 0.0060284706
000230 b9 1a 61 3e ca 37 4f bd ce a4 ad bd 44 1b 1d 3e
       0.2198285 -0.050590314 -0.084786996 0.15342432
000240 32 9a 23 bd bd df 94 be 30 07 13 be 61 47 ce bc
       -0.039941974 -0.2907695 -0.1435821 -0.02518052
000250 8e f8 2b 3e 79 2a 0b 3e af 4c 2d be 36 e6 fc 3d
       0.16794035 0.13590421 -0.16923784 0.12348597
000260 39 bc c7 3d 05 ad d3 bb eb 3c 75 bd cd 60 57 bd
       0.097526975 -0.0064598345 -0.05987255 -0.05258255
000270 25 77 ce 3c bd b8 c1 bc 0f 77 81 be 7b 03 40 be
       0.025203297 -0.02364766 -0.25286147 -0.18751328
000280 b8 b3 59 3d fa 05 35 3e 5c 75 7d 3e 80 cf 5f bd
       0.05314991 0.17678061 0.247518 -0.054641247
000290 cf d1 22 3e 40 ff d0 3d a8 26 99 be 0e 93 61 3e
       0.15900348 0.10204935 -0.29912305 0.22028753
0002a0 0a f9 9f bd f5 db 24 3e d3 85 6a bd aa fe 7e 3c
       -0.07811172 0.16099532 -0.05725653 0.015563646
0002b0 ae ba 48 3e dd 02 07 be ed f3 43 3c 6d 77 75 3d
       0.19602463 -0.13184686 0.011960012 0.059928346
0002c0 5c a3 45 3e 1a d6 01 3e 5a 6b 4f be 11 07 02 be
       0.19300598 0.1267933 -0.20255795 -0.12698008
0002d0 d5 15 20 3e 13 64 3a 3d 92 40 0e 3e a7 2c 2f be
       0.15633328 0.045505594 0.13891819 -0.17106877
0002e0 f4 55 ba bd 4e 3e e0 3d 43 5e 92 bd 7a 31 53 3d
       -0.090984255 0.10949384 -0.07146885 0.051560856
0002f0 25 34 71 bd 5f 0a ff 3d 21 24 63 be aa 2d dc bc
       -0.05888762 0.1245315 -0.22181751 -0.026877243
000300 b6 c3 9c bd 4f f6 e5 bd a6 05 04 bd c7 c1 65 bd
       -0.076545164 -0.1122862 -0.03223195 -0.056093004
000310 d5 d2 aa 3d 1f ce 80 3d c9 f4 78 3d 48 0e 03 be
       0.08340994 0.062893145 0.06078032 -0.12798417
000320 a7 c7 26 be 80 a8 55 bd 9e d2 ad 3c 92 7a 80 bd
       -0.16287099 -0.052162647 0.021218594 -0.062733784
000330 4e 89 ba 3c 5d ab 2d bd b2 62 d0 bd 8e 06 8a 3d
       0.02277055 -0.042399753 -0.10175075 0.067395315
000340 67 c6 89 bd b4 b0 12 be b6 30 9b bd 6e 5f 8f bd
       -0.06727295 -0.1432522 -0.0757765 -0.07000624
000350 06 29 f9 3d 3d 90 d3 3d 49 d5 d2 bd fe df 0e 3e
       0.12166028 0.10330246 -0.10294587 0.13952634
000360 6f 2e 04 bc f3 85 a0 3d 87 4c 25 3c e0 fb ba 3d
       -0.008067711 0.07838049 0.010089046 0.091300726
000370 87 29 35 3c c5 5d 86 3c ab 0b 15 be 1c 9d 64 bd
       0.011057264 0.016402135 -0.14555232 -0.055813894
000380 3b f3 fd 3c 42 0a 06 3e 97 fc 19 3e f5 88 34 3d
       0.03099977 0.1308985 0.15037762 0.044075925
000390 df 9e 5a 3d a7 fb 81 3c e9 e9 67 bd 90 9a 05 3e
       0.053374168 0.015867068 -0.05661956 0.13047242
0003a0 97 af d8 bd a9 dc e8 3d bc 0f a3 3c 84 9f 04 b9
       -0.10580366 0.113702126 0.019904964 -0.00012647925
0003b0 59 97 c7 3d 34 f6 8f bd c4 8d 9a 3d 42 47 a8 3b
       0.09745664 -0.070293814 0.07546571 0.0051354477
0003c0 cf 0d c1 3d df be d3 3d ec ee d0 bd eb f3 4c bd
       0.09426462 0.1033914 -0.10201821 -0.050037306
0003d0 26 2f ea 3d 75 cf 38 3e 43 3d a4 bd 0f a0 d8 bd
       0.11434774 0.18047889 -0.08019497 -0.10577404
0003e0 df f3 04 be 70 d0 46 3d f7 53 9e bc b9 d2 11 3e
       -0.12983654 0.048538625 -0.019327147 0.1424054
0003f0 8d 9c f8 3c a5 64 a6 3d 1b d3 53 bd 89 2b 5b bd
       0.030348087 0.08124665 -0.051714998 -0.053508315

value_embed.bias f4 [64]
000000 36 7b 2b 3e 48 99 ee 3e e5 b1 12 bf b6 6b b2 be
       0.1674622 0.4660132 -0.57302696 -0.34847802
000010 c4 0a 1a bd d4 c7 97 be 98 fe 24 bf 0a 6f da 3e
       -0.037607923 -0.29644644 -0.6445098 0.4266284
000020 5d 03 68 3f 9d 26 8f 3e 16 e3 df be 61 eb a9 3e
       0.9063013 0.27959147 -0.4372794 0.33187392
000030 44 fd 8e be c5 1e a9 3d 74 79 c6 3e 35 a0 2d bf
       -0.279276 0.08257822 0.38764536 -0.6782258
000040 2e 60 aa 3e e5 00 21 3f 2f 86 34 3f 6d 04 09 be
       0.33276504 0.6289199 0.7051725 -0.13380595
000050 ba 98 9d bd 7d 8c a5 3e ed c9 f9 bd af 56 5e bf
       -0.07695146 0.32333747 -0.121967174 -0.8685102
000060 63 aa 59 3f c0 67 69 bf 1b ae e1 be 17 80 94 be
       0.85025615 -0.91173935 -0.44078144 -0.29003975
000070 33 7b 13 3f 45 31 70 3d d5 9b 64 3f bd 4c 19 3e
       0.5760986 0.058640737 0.8930028 0.1497068
000080 d6 33 38 bf e7 d3 ab be 3a 4d 1c 3d a9 79 e5 be
       -0.71954095 -0.33560106 0.038159586 -0.44819382
000090 b3 e5 f8 3e 3a 82 0f 3e df ff b1 bc d2 27 da be
       0.48612747 0.14014521 -0.021728454 -0.42608505
0000a0 f4 a2 6e 3f 7d 91 16 bf db 30 2a bf 7a 06 9f 3e
       0.93217397 -0.5881575 -0.664808 0.3105963
0000b0 f7 65 cf bd 1a fd 0a 3f f1 10 57 bf c7 72 00 bf
       -0.1012687 0.5429245 -0.84010226 -0.50175136
0000c0 d2 20 4b bf dd 13 3f bf ca 05 66 3f 8b 6e 25 3f
       -0.79346955 -0.74639684 0.89852583 0.646218
0000d0 74 0f ea be bd 1d 33 bf 8f b0 32 3c 5c 5f 53 3d
       -0.45714915 -0.6996725 0.010906353 0.051604614
0000e0 4c f1 27 3f 33 a6 10 3e 53 f9 19 bf 43 f6 4a bf
       0.65602565 0.141259 -0.60146064 -0.79282016
0000f0 5b 36 46 3f 70 9e 9d 3e f9 47 11 3d e8 63 35 3f
       0.7742669 0.3078494 0.03546903 0.7085557

transformer.layers.0.self_attn.in_proj_bias f4 [192]
000000 67 4e a6 bd e7 e1 cd 3d 74 98 a0 3d c2 7f c7 bd
       -0.08120423 0.10052853 0.07841578 -0.09741165
000010 2f 20 9a bd 14 c5 94 bd 9e ab aa 3d e2 37 af bd
       -0.0752567 -0.07264152 0.08333515 -0.08555581
000020 c6 eb 95 bd d3 60 92 3d 10 a5 90 bd e9 81 8f bd
       -0.07320361 0.07147374 -0.07062733 -0.070072
000030 37 0c 85 bd 33 ec 72 3d ba af 86 3d 50 9a 80 bd
       -0.064964704 0.05930729 0.06576486 -0.06279433
000040 a9 c7 73 bd 73 d7 12 3d b4 d0 91 3d 20 28 bb bd
       -0.059516583 0.03585 0.07119885 -0.091385126
000050 10 bc 8c bd 84 5c e1 bc bd 5c 7c bd e9 d1 aa bd
       -0.068718076 -0.027509935 -0.06161188 -0.083408184
000060 54 63 bc 3d 8a 85 b6 bd d6 b7 b3 bd b0 64 c2 3d
       0.09198633 -0.08912189 -0.08775298 0.09491861
000070 b6 9a 49 3d 2b 17 e1 bc 15 ce b7 3d 93 e6 a6 bd
       0.04921981 -0.027476868 0.08974854 -0.08149447
000080 43 58 5b bd f7 46 87 3d 7e 39 4b bd f4 1c 99 bd
       -0.05355097 0.06605332 -0.049615376 -0.074762255
000090 76 09 9b 3d d8 5a 6c 3d d9 d3 cc 3d b3 d4 95 3d
       0.07570164 0.057703823 0.10001344 0.0731596
0000a0 7f 9f 7c 3d 6a b2 76 3d 1e d3 83 3d 8a d3 33 3d
       0.061675545 0.060228743 0.06436752 0.04390291
0000b0 d5 9b 23 3d 58 22 88 3d 83 50 5a bd b6 8a 6d 3d
       0.039943535 0.066471756 -0.05329944 0.057993613
0000c0 bd b8 60 3c 71 c7 9f 3c b1 21 87 3a 48 c0 59 bb
       0.01371592 0.01950428 0.0010309723 -0.003322618
0000d0 8c c7 ee bc 9c 03 8c 3c e2 c7 1e bd 8f bd 66 3c
       -0.029147886 0.017091565 -0.03876484 0.01408328
0000e0 11 7b 61 3d 2b a0 45 3d e5 a5 3f bd 3d 6c 58 3d
       0.055049006 0.04824845 -0.04678907 0.0528376
0000f0 eb ac 20 3d 7a dc 6c bd de 3c 7b bd 8a 48 62 bd
       0.039227407 -0.05782745 -0.061337344 -0.05524496
000100 a8 04 0f 3d 60 31 30 bc ae 05 02 bc 86 78 96 bc
       0.03491655 -0.010753959 -0.007935924 -0.018368017
000110 d3 de 41 bb f4 06 56 3c a8 67 a9 ba ea ba 43 3c
       -0.0029582276 0.013063181 -0.0012924569 0.011946419
000120 13 61 a6 bb f4 d8 b5 3b 52 d4 93 ba 27 53 1e ba
       -0.00507749 0.0055495445 -0.0011278486 -0.00060396123
000130 72 fc cf ba 65 d9 12 3a aa a4 16 ba 0b 8e c8 bb
       -0.0015868081 0.00056018523 -0.0005746583 -0.0061204485
000140 93 ee 78 ba 32 15 50 ba ee b3 47 b9 82 fa 80 37
       -0.00094959995 -0.00079377287 -0.00019045148 1.537544e-05
000150 75 37 50 39 eb cd 41 ba 48 57 d1 ba 34 be 7a 3a
       0.00019857085 -0.000739305 -0.0015971446 0.00095650856
000160 6b 84 de bb 04 eb 1f bb 50 9b 33 3c b1 33 43 bc
       -0.006790688 -0.0024401555 0.010962322 -0.01191418
000170 3a b1 e7 bb 09 20 a2 39 42 bb c2 bb 2c bc 09 3c
       -0.0070706876 0.00030922916 -0.005942733 0.00840668
000180 2c 17 ed 3a 41 77 37 3c a1 70 8a bb d0 c1 20 bc
       0.0018088571 0.011197866 -0.004224852 -0.0098118335
000190 4c 08 b2 bb 86 12 9d 3b 3d d8 2e 3c ce d7 3f 3c
       -0.005433118 0.004793468 0.010671672 0.011709167
0001a0 97 9c 22 ba 31 6d 14 3b b4 72 36 bb 5c de 1c 3b
       -0.0006203143 0.002264809 -0.0027839364 0.0023936247
0001b0 b6 ee 23 3a 68 f2 31 3b 86 48 07 3b 59 65 f4 ba
       0.0006253527 0.0027152542 0.0020642593 -0.0018645927
0001c0 04 83 65 3a 62 79 04 b9 bf 1a da b9 0e 3c d2 38
       0.00087551796 -0.0001263372 -0.00041600128 0.000100247664
0001d0 58 0a 99 b9 a5 d8 1f b8 c8 63 b4 b9 eb e8 05 b9
       -0.0002919014 -3.811032e-05 -0.00034406618 -0.00012770637
0001e0 ec d8 8a 3b 37 02 bf 3a af ad 59 bb ec a6 8a b9
       0.004237285 0.0014572804 -0.0033215096 -0.00026445778
0001f0 5a a7 c3 3b a0 52 68 bc 2a e6 3f bc 7e 2d 0a bc
       0.0059708776 -0.014179856 -0.01171259 -0.008433698
000200 02 4c 99 bb 09 c4 31 bc ce f7 37 bc 2b 1d b2 bb
       -0.0046782503 -0.010849961 -0.011228515 -0.005435606
000210 12 fe b6 bc ea a2 c4 3c 01 7e ae bb e8 a2 5b bc
       -0.022337947 0.024003465 -0.0053250794 -0.013405539
000220 92 12 9b bc 7c 59 2b bc 15 db a4 bb 50 4e 19 3c
       -0.018929753 -0.010458346 -0.0050309994 0.00935705
000230 87 7c 2b 3c 6b d5 83 bc 3a 72 82 b9 98 97 16 39
       0.010466701 -0.016092977 -0.00024880638 0.00014361588
000240 ea f9 03 bc b2 0a 56 3c c9 b6 57 3c 81 17 92 bc
       -0.00805519 0.013064073 0.013166138 -0.017833473
000250 20 f0 80 bb 66 45 44 bc 8f ed 9e bc 00 bd e7 3b
       -0.003934875 -0.0119794365 -0.019400386 0.007072091
000260 5a 0f 55 bb 37 90 47 bc 45 87 c5 bb 4d c0 69 ba
       -0.003251037 -0.01218038 -0.0060280883 -0.00089168997
000270 67 68 e6 ba b7 22 04 bc 38 c8 05 bd af ac b0 3c
       -0.0017578722 -0.008064917 -0.032661647 0.021566717
000280 07 08 21 3b 0b db 18 3c 25 57 ec 3c 3e 76 f1 bb
       0.0024571435 0.009329568 0.028850148 -0.007368832
000290 b4 a4 87 bc 2a f6 01 bc 58 5e 8f bc 6f 4c fe bb
       -0.016558029 -0.007932225 -0.017501041 -0.0077605764
0002a0 61 80 b2 3b 72 c3 6d ba cd f3 f7 3b 60 c3 17 3c
       0.005447433 -0.0009069956 0.007566905 0.00926289
0002b0 00 8a ab 3c 64 38 24 bc 20 60 87 38 d9 4b 2d bc
       0.020939827 -0.01002321 6.455206e-05 -0.0105771655
0002c0 48 e6 06 bd c5 1c 29 3c a1 9e 28 3c 43 fe b8 bb
       -0.032934457 0.010321801 0.010291726 -0.0056455447
0002d0 49 0a fa bc 3c 09 6b 3a 2d 4e f7 bb 20 6d d7 3c
       -0.030522482 0.00089659146 -0.007547161 0.026297152
0002e0 30 1b 91 3c 9b 30 0d bc c0 48 ba b7 a3 7e 46 39
       0.01771316 -0.0086175455 -2.2206805e-05 0.00018929927
0002f0 97 fc b0 bc 2a 53 2e 3c ae 71 a4 bc 64 fb 00 bc
       -0.02160482 0.010639945 -0.020073738 -0.007872436

transformer.layers.0.self_attn.out_proj.weight f4 [64, 64]
000000 3a e2 4c bd dd b9 47 3d f3 08 be 3d 0d b8 ab bd
       -0.050020434 0.048761237 0.09279051 -0.08384714
000010 b6 b7 7b 3d 6b d3 a7 bc 83 a5 b6 bd 1a 6a 37 3d
       0.061454497 -0.020486554 -0.089182876 0.04477892
000020 93 ac 15 3d 28 d7 e5 bb a4 de 44 bc db dd 5f 3d
       0.036541533 -0.007014174 -0.012015972 0.054654937
000030 33 a2 4e 3d b1 c5 02 3e af 01 aa 3d 7c 48 d3 bd
       0.050447654 0.12770726 0.08301102 -0.1031656
000040 57 e2 3e 3d 68 03 5e 3d 44 ec cc bd 2b 4e cd bd
       0.046602573 0.054202467 -0.100060016 -0.10024675
000050 d9 58 02 bc ef 88 71 bd 95 a8 d3 3d c5 2b cc bd
       -0.007955753 -0.05896848 0.10334889 -0.09969286
000060 2b e6 80 3b 7d 09 87 bc 03 3e 04 be 3f 29 85 3d
       0.003933688 -0.016484017 -0.1291428 0.06502008
000070 be 6e 96 3d e3 31 ee 3d f8 35 d3 ba c5 e7 cb 3d
       0.07345341 0.11630609 -0.0016114106 0.09956316
000080 14 41 ae bc 57 37 28 be 65 99 80 3d 27 d2 69 bd
       -0.021271266 -0.1642736 0.06279258 -0.057085183
000090 a3 ed 72 3d 0a 60 ee bc 04 1c ca bd 97 3e 07 3d
       0.05930866 -0.02909853 -0.09868625 0.033018675
0000a0 bd 59 6b bd b7 e1 0c 3e b0 e1 83 bc ec ed b7 3d
       -0.057458628 0.13757978 -0.016098827 0.08980927
0000b0 0f b0 a8 3d 81 17 da bd 74 4a 84 3d f4 29 cd 3d
       0.082367055 -0.10649014 0.06459513 0.100177675
0000c0 03 60 b8 3d fc a9 d9 3d c4 78 8f 3d 77 29 e2 bd
       0.09002688 0.10628125 0.07005456 -0.11043065
0000d0 d8 eb a2 bd a4 04 ec bc 1e 72 83 bd e7 e9 1c 3d
       -0.0795514 -0.028810807 -0.064182505 0.038309004
0000e0 5e 27 50 3d ce 95 e2 bc a5 8e ea bd ae 52 2f 3d
       0.050818793 -0.027659323 -0.114529885 0.04280346
0000f0 71 d3 99 bd 44 cd b8 3d cd 36 37 bd 6d d6 e3 3d
       -0.075110324 0.09023526 -0.044729996 0.11124883
000100 b7 d4 11 bd b0 69 dc 3c e3 e5 08 3e 13 0d 05 3d
       -0.03560325 0.026905864 0.13368945 0.03248317
000110 7c 98 d3 bc 44 b8 46 3d 3c 37 bb bc af 0f 7e 3d
       -0.025829546 0.048515573 -0.022853486 0.062026676
000120 37 5f 08 bd 0c 10 b6 3d 64 98 75 bd 1e de 06 bc
       -0.03329393 0.088897794 -0.059959784 -0.008231668
000130 cc 68 a0 bd be be 83 3d 8b da 8b bd f9 66 e4 bc
       -0.078324884 0.064328656 -0.06828793 -0.027881132
000140 26 7d d5 3c 40 75 5e bd 48 f1 22 3d f3 24 df 3b
       0.026060652 -0.054311037 0.039780885 0.0068098246
000150 26 d1 84 3d 96 76 7d bb 8e fb 8e bd b1 9d 9f 3c
       0.064852044 -0.003867542 -0.06981574 0.019484373
000160 cf b9 c5 3c 69 96 d6 3d 6e 64 e0 bc f8 5f 16 bd
       0.024136452 0.10477907 -0.027391639 -0.036712617
000170 05 e9 58 3c 9f e3 42 bd 56 82 02 bc ce 6e e5 bc
       0.01323915 -0.047580358 -0.007965645 -0.028006937
000180 b5 d9 e9 3d 73 77 0d be 6b d2 c7 bc 2c 59 77 3d
       0.114184774 -0.13815098 -0.024392327 0.060387775
000190 81 dd 58 bd 4f 53 68 3d 7c 1d a0 3d 1b 2e a3 3d
       -0.052945618 0.056720074 0.07818124 0.07967778
0001a0 a7 4b ec bd 63 4c 5b bc 66 14 42 bd ee d5 79 bc
       -0.11537867 -0.013384911 -0.047382735 -0.015248759
0001b0 0e 52 d0 3d f1 17 84 bd c3 3e 2f bd 5f 42 e4 bc
       0.10171901 -0.06449879 -0.042784464 -0.02786368
0001c0 37 ce 14 bd 7a 9f 77 3c 3b 17 a9 3a 21 1f 14 bb
       -0.036329474 0.015113706 0.00129006 -0.0022601562
0001d0 53 e2 26 3c 6b 67 e5 bc 8c cf 62 bd 00 3a b3 bc
       0.010185796 -0.028003415 -0.055373713 -0.021878242
0001e0 78 ea c3 bd 6b 6b d8 3d af e5 2c 3d 41 ac 86 3d
       -0.09566206 0.10567363 0.04221123 0.065758236
0001f0 5d f5 c2 3d c6 45 9e bd 9e d0 58 bd 24 f9 c2 3d
       0.095194556 -0.07728152 -0.052933328 0.09520176
000200 41 3e 68 bd 6a 3c fc 3b d5 52 d2 bd 52 03 a5 bd
       -0.056699995 0.0076976316 -0.10269705 -0.08057274
000210 eb ed 0c 3e 91 b2 a7 3c c7 cb 70 3d 24 a1 82 3d
       0.13762634 0.02047089 0.058788087 0.063783914
000220 58 c5 1f bc a4 77 fe bd 3d 7a 0e bd c6 30 95 bd
       -0.00975164 -0.124251634 -0.034784544 -0.072846934
000230 f7 a7 0a 3d 05 08 d8 3d 7e fe 2b be 49 58 ac bd
       0.03385159 0.105484046 -0.167963 -0.084152766
000240 00 3d 93 3d 11 52 b2 3b 6d c4 57 3c 6e d8 cf bd
       0.07189369 0.005441912 0.01316939 -0.101487026
000250 60 05 b9 bc 99 41 a4 3d 74 d2 71 3d 91 91 1f bd
       -0.02258557 0.08020324 0.059038594 -0.038957182
000260 ea 39 76 bb be bb 7c bd 25 f5 65 be 95 3a 0b 3e
       -0.003757114 -0.061702482 -0.22456796 0.13596566
000270 85 b0 1d 3e 94 d0 29 be fb 99 e2 3d 9a 92 1c be
       0.15399368 -0.16583472 0.11064526 -0.15290299
000280 d5 f5 e3 3d b4 88 8e 3c 1a 63 27 bd 64 f9 f4 bc
       0.11130873 0.01739917 -0.040865995 -0.029904075
000290 dc 46 33 3d 22 f6 c4 3d 91 ab fe 3c 47 6b a7 3d
       0.04376875 0.096172586 0.031087669 0.081747584
0002a0 0e ae f8 3a 32 98 f7 3c 25 e4 eb bc 45 86 d5 3d
       0.0018972771 0.03022394 -0.028795311 0.104260005
0002b0 d9 c9 f7 bd 1e 49 ce 3d 4b f0 9f 3d 7f c8 fd bc
       -0.12099046 0.1007254 0.07809504 -0.030979393
0002c0 bd 1c e4 3d 75 c6 72 3d 22 b7 41 bd 8e 65 00 3d
       0.11138294 0.059271295 -0.04729379 0.03134685
0002d0 fd 85 76 3d ff 33 ae 3d 69 68 53 bd 55 b0 d7 3d
       0.060186375 0.08506011 -0.051613245 0.105316795
0002e0 09 a9 a7 bd 26 b8 07 3e b7 6c ea 3c 15 9e b5 3d
       -0.08186538 0.13253841 0.028616292 0.088680424
0002f0 bb 6f 5f bd 24 8b d2 3d 3b 0f 29 3e bf ac dd bb
       -0.054549914 0.10280445 0.16509716 -0.0067649777
000300 29 3f df bd 4a 9b 78 bc 07 e8 2c bd a0 63 ab bd
       -0.10900719 -0.015173743 -0.042213466 -0.08368611
000310 5a 98 f8 3d 02 a2 a4 3d 28 9b 97 3d 7c 06 93 3d
       0.12138434 0.08038713 0.074026406 0.07178971
000320 9e 1b 27 3c 28 b1 0d bd 76 9b c4 3d 80 8a 7a 3d
       0.010199456 -0.034592777 0.09599964 0.06116724
000330 9c 5e 8e 3d c8 37 c3 3c 9f ec a7 bd cd 8a 40 3d
       0.06951639 0.02383031 -0.08199429 0.04700737
000340 83 d7 8e 3d 27 e0 5e bd 7c 58 ef 3d 23 99 8e bc
       0.06974699 -0.054412987 0.11686799 -0.017407006
000350 4c 5e 23 3d 70 5c 33 3d 83 69 55 3d 50 47 23 bd
       0.03988485 0.043789327 0.052102577 -0.03986293
000360 fe f3 bd 3d b4 31 c0 3d a7 bb 55 3d 0c d2 43 3d
       0.092750534 0.0938448 0.052180912 0.04780774
000370 b2 98 8e 3d 5f 98 84 3d 3e 52 4f bd a9 f4 58 3d
       0.06962718 0.06474375 -0.05061554 0.0529677
000380 3b 55 25 bd dd 6d 42 bc 78 ee e8 bc d0 83 8d bd
       -0.040364485 -0.011867014 -0.028434023 -0.06909907
000390 f0 6c 1e 3d a9 45 91 bd bd 07 7d bd 03 d2 08 bd
       0.03867811 -0.07093365 -0.061774958 -0.033403408
0003a0 06 cc 92 3d bc 20 b3 3c 21 a4 f7 bd 42 6b 28 bd
       0.07167821 0.021866195 -0.12091852 -0.041117914
0003b0 c3 98 34 3d d3 37 c2 bd 04 05 f5 3a a0 11 30 3d
       0.044090997 -0.09483304 0.0018693511 0.04298556
0003c0 07 d4 25 3d 36 87 79 bd 56 d2 db bd b1 46 8f 3c
       0.04048541 -0.060919963 -0.10733478 0.017489763
0003d0 c6 52 01 3e f6 1d dc 3d ad 9f 27 3e 2b 3c bb bd
       0.12629232 0.10747902 0.16369505 -0.091423355
0003e0 95 c4 14 be 84 4c 19 3d 33 9d 2b bc 73 58 bf 3c
       -0.14528115 0.037426487 -0.010474491 0.023357606
0003f0 51 48 7a bd 76 b3 58 bd 92 0b a5 3c 5e d3 92 3d
       -0.061104123 -0.052905522 0.020147119 0.07169221

transformer.layers.0.self_attn.out_proj.bias f4 [64]
000000 53 1e 1a 3c 63 b4 b8 3b 34 91 bc 3d ff d8 0a 3d
       0.009406644 0.005636738 0.09207383 0.03389835
000010 8b 93 37 bc 95 5d e5 bb 16 e0 72 3d c4 92 60 bc
       -0.011204611 -0.0069996812 0.059295736 -0.013706867
000020 d8 db 3d bd 09 06 bf 3c e3 93 46 bc c5 af cf bc
       -0.046352237 0.023318307 -0.01212022 -0.025352368
000030 a0 19 39 bc e0 95 3d bb d0 87 14 bd 49 0e 9a 3c
       -0.011297613 -0.0028928444 -0.036262333 0.01880564
000040 8c 4e 26 3c 49 72 d0 bc 05 c6 b4 bb 33 28 d7 3c
       0.010150563 -0.02544512 -0.00551677 0.026264286
000050 2c 9a 0c bc e2 18 2e bd d5 8d f6 3c 26 41 bd bb
       -0.008581679 -0.0425042 0.030096928 -0.0057755886
000060 70 23 43 bd 37 b9 d1 3c 74 19 35 3c ba b1 dc 3c
       -0.047641218 0.025601013 0.011053432 0.026940215
000070 96 37 3d bd 74 4d 59 bc d3 87 ca bc 4a 3c c5 3a
       -0.04619559 -0.013263095 -0.02472297 0.0015047875
000080 f6 4d 0b 3a 6a 5e 12 bb f6 43 83 bc 5c 18 cc 3d
       0.0005314046 -0.0022334107 -0.016023617 0.09965584
000090 06 84 b2 bb f8 7e 89 bc c6 77 ec bb ad 73 27 3b
       -0.0054478673 -0.016784176 -0.0072164265 0.0025551126
0000a0 b0 89 04 b7 86 c3 2d 3b d1 57 83 3d b5 5a 8a bc
       -7.899871e-06 0.0026514246 0.06413234 -0.016888956
0000b0 e8 4d 64 bd 1c 6a 01 bc de a6 ed 3b 97 51 0d 3c
       -0.05573836 -0.007898834 0.007252558 0.00862541
0000c0 9c 6f 19 bc 7f 47 f3 bb 93 f6 82 bb fa e9 86 3b
       -0.009364989 -0.0074242945 -0.003996679 0.0041172476
0000d0 ce f8 37 3c 8a 2b 7a 3d 83 ba e2 3c e3 97 b3 3b
       0.011228753 0.06107668 0.027676826 0.005480753
0000e0 14 90 35 3c 36 ad 91 bc 0d e3 90 3d 4a d6 e5 3c
       0.011081714 -0.017782789 0.070745565 0.028056283
0000f0 ce 1e 98 bc 2f a9 24 bd a2 02 fd 37 87 29 72 bb
       -0.018569376 -0.04020041 3.0161176e-05 -0.0036951022

transformer.layers.0.linear1.bias f4 [128]
000000 21 18 80 3d 54 b7 05 be 55 ab 00 be f7 43 78 3d
       0.06254602 -0.13058215 -0.12565358 0.06061169
000010 6a 15 14 3d f8 a8 18 bd 82 79 6f 3d 96 d2 5b 3d
       0.036153235 -0.037270516 0.05846549 0.053667627
000020 00 51 de bc 4a 90 f1 3c b3 c8 fa 3b 31 86 4d bd
       -0.027138233 0.029487748 0.0076533197 -0.050176803
000030 10 30 ec bd 8b dd f1 ba 8c b1 b6 3c 88 b7 42 bd
       -0.11532605 -0.0018452866 0.022301458 -0.04753831
000040 d1 be 86 bd 66 4f c9 3d 6c 50 ac 3d 9c 36 0e 3d
       -0.06579364 0.09829597 0.08413777 0.03472005
000050 0e 8d c1 bd fd 8d 14 3d f1 ef 38 3c b3 90 95 3d
       -0.09450732 0.036268223 0.011287675 0.0730299
000060 05 e0 27 bd fc 93 89 3b bf 0f 4e bd fc 52 15 be
       -0.040985126 0.0041985493 -0.050307985 -0.14582437
000070 e6 0b 43 bd 23 1c a6 bd 41 a2 b4 3d 22 34 af 3d
       -0.04761877 -0.081108354 0.0882001 0.085548654
000080 3a 86 5d 3d 2e ff c5 3c 08 91 97 3c e5 b7 e3 bc
       0.054083087 0.02416953 0.018501773 -0.027797649
000090 de ff 39 bc 6d 6b 04 be 85 4f c9 3d ca cb 25 3d
       -0.011352507 -0.12931605 0.0982962 0.04047755
0000a0 54 e4 f0 bd b3 a4 99 3b b3 da c8 bc 1f 50 d8 bd
       -0.117623 0.004688823 -0.024518346 -0.10562157
0000b0 18 67 23 3d b7 99 18 3b c5 79 68 bd 6b b2 0b 3d
       0.03989324 0.002328498 -0.056756753 0.0341057
0000c0 9b ce 27 3d 4f 0a d5 3d 02 08 f5 bd 14 57 3d 3c
       0.04096852 0.10402357 -0.11964418 0.011556406
0000d0 8a 33 a1 bd 6f 83 a2 3d 94 83 ed bd 80 b1 8d bd
       -0.078711584 0.07935225 -0.11597362 -0.06918621
0000e0 25 ad dc bd bc d7 ce 3d a3 a7 38 3d ff 2f 01 be
       -0.10775212 0.10099742 0.045081746 -0.12615965
0000f0 07 45 81 3d 94 92 14 3c 38 8e ea bd 7b ad b4 bd
       0.06311994 0.00906815 -0.11452907 -0.08822151
000100 bc 1b c7 bd e0 ef 9f bd bf 17 20 3d cf a2 0c bc
       -0.09722087 -0.078094244 0.039085146 -0.0085837385
000110 7f e2 11 3d 1f fa 82 3d 66 cd 0a be b0 b8 7f 3d
       0.035616394 0.06395363 -0.13554916 0.06243199
000120 5e 91 79 3d db 08 2c bc 50 c7 9b bd 31 51 de bd
       0.06092965 -0.010500158 -0.07606375 -0.1085533
000130 7e 48 dd bd e9 35 96 3d 80 db 99 bc 50 f9 3d bd
       -0.108048424 0.07334501 -0.018781424 -0.04638034
000140 89 70 11 3d 96 9e 47 bd c9 f8 7d bd ac 51 da 3d
       0.035507713 -0.048735224 -0.06200484 0.10660109
000150 90 95 bd 3d 09 a6 c8 3c 54 7b de bc 23 be 9d bd
       0.092570424 0.024493234 -0.027158417 -0.07702281
000160 10 8e bc bc 56 58 14 be 19 39 7d 3d e8 78 9d bd
       -0.02301696 -0.14486822 0.06182203 -0.07689077
000170 68 d4 4f 3d a2 ff 5f bb 87 df 25 3d d9 18 35 3d
       0.050739676 -0.0034179469 0.040496375 0.04421315
000180 60 63 2a bd 8e 34 cb 3d 2d 2b 1d 3d 22 f4 96 bd
       -0.041598678 0.099221334 0.038371254 -0.073707834
000190 a8 d0 a0 bc 05 6a 12 ba ba e0 ab 3d 5b 6c fc bd
       -0.019630745 -0.0005585256 0.083924726 -0.12325355
0001a0 31 d1 7c bc b1 63 93 bc 7c 4a ff 3d c4 26 9b 3c
       -0.0154307345 -0.017991873 0.12465379 0.018939383
0001b0 fa ec d5 3c 58 97 f0 bd 88 8a 71 bd 7a b9 45 3d
       0.026113976 -0.117476165 -0.058970004 0.048272587
0001c0 59 e0 a7 3d 71 82 f7 bd 28 3f b2 bd bd 9a 26 be
       0.08197088 -0.120854266 -0.08703452 -0.16269965
0001d0 e0 14 bb bd 48 08 cc bd 63 59 0c 3d 2b 81 84 bb
       -0.09134841 -0.09962517 0.034264933 -0.0040437183
0001e0 79 b2 46 3d f8 19 88 3d 9c aa d8 3c e0 e3 d1 bd
       0.04851005 0.06645578 0.02644854 -0.10248542
0001f0 56 3a bc 3c ea a7 4d bd 0a 22 ef bd 4c 5c 8d bd
       0.022977035 -0.050208963 -0.11676414 -0.0690237

transformer.layers.0.linear2.bias f4 [64]
000000 a1 ce b0 bd 28 9d 0a 3d 9d c0 18 3e 76 fe ab 3d
       -0.08633161 0.033841282 0.14917226 0.08398144
000010 10 49 c4 3c 37 80 7b 3d 63 da 85 3d 37 27 5b 3c
       0.02396062 0.061401572 0.065357946 0.013376049
000020 61 fd fd bb 5d 7b 86 3d c4 d3 35 bd 96 c4 8b bd
       -0.0077511524 0.065664984 -0.04439141 -0.06824605
000030 ae 17 98 bc f2 d3 57 3d 8f f5 11 3d 94 e8 44 bd
       -0.018565979 0.05269236 0.035634574 -0.048073366
000040 74 b6 9f 3c 92 4a 4f bd fb 3f 17 bd ed 06 5e bd
       0.01949618 -0.050608225 -0.03692625 -0.054205824
000050 a1 3a b6 3c 2c 7e 9f bd 4c 36 81 3c 71 f5 21 bc
       0.022244753 -0.07787737 0.015772961 -0.009885178
000060 1c ab 93 bc 27 ba 50 3c a0 68 0d bd 38 80 ea ba
       -0.018025927 0.012739695 -0.034523606 -0.0017890995
000070 6e 0e 3a be f6 0d e1 bc f0 0d d4 bc aa b9 9c bc
       -0.18169567 -0.027472477 -0.025885552 -0.0191315
000080 fb b8 2c bc 30 8a 8c bd b2 cc 82 bd 1e 3f a2 3d
       -0.01054215 -0.06862295 -0.06386699 0.07922195
000090 8e 58 35 bd c3 64 1e bd 2b 42 a7 3c 67 fd 6b 3d
       -0.044273905 -0.038670313 0.020417294 0.05761471
0000a0 2f b4 31 bd c2 9d 25 bd 93 79 22 bd 02 9f 2f 3d
       -0.043384727 -0.040433653 -0.039666723 0.04287625
0000b0 b3 ac 14 bd 01 75 fb bc e7 33 60 3b 5d 7b 62 bc
       -0.03629751 -0.03069544 0.0034210624 -0.013823357
0000c0 f7 35 91 3d 79 21 35 3d ea d4 48 bd 5f 87 46 3d
       0.07090371 0.044221375 -0.049031176 0.048468944
0000d0 3d 7c c6 3d 02 59 6b bc cc 96 9e bc d1 1b f2 3c
       0.09691665 -0.014364483 -0.019359015 0.02955428
0000e0 d2 6a 48 bc e2 6c 03 3c c7 74 e5 3d 9a 1a 95 3d
       -0.012232499 0.008021565 0.11203914 0.072804645
0000f0 24 ec 2a 3d 0e ae 54 bd b3 77 8e 3d a5 4b 92 3c
       0.041729107 -0.051923804 0.069564246 0.017858336

transformer.layers.0.norm1.weight f4 [64]
000000 8c f4 7c 3f d3 0b 90 3f be 1c 64 3f 54 16 76 3f
       0.9881065 1.1253608 0.8910636 0.9612782
000010 f5 f0 7d 3f a1 59 82 3f bd 86 68 3f 16 71 85 3f
       0.99195796 1.0183603 0.90830594 1.0425136
000020 8f 71 70 3f 6d 8d 87 3f d2 73 8c 3f 99 5b 8c 3f
       0.93923277 1.0590035 1.0972846 1.0965453
000030 a1 5a 91 3f 30 60 77 3f cd 09 7d 3f b3 e9 76 3f
       1.1355783 0.96631145 0.9884308 0.96450347
000040 dd 44 87 3f fc 44 8a 3f e9 47 79 3f 92 a3 80 3f
       1.056789 1.0802302 0.9737535 1.0049918
000050 65 be 7c 3f 9f 9f 7f 3f 09 e7 7b 3f bf 10 82 3f
       0.9872802 0.9985294 0.98399407 1.016136
000060 5d 69 6c 3f cf f6 75 3f 11 bc 81 3f 3c 52 64 3f
       0.9234827 0.96079725 1.0135518 0.8918798
000070 46 03 69 3f 1d e2 81 3f 53 b4 70 3f ea a8 87 3f
       0.9102062 1.0147129 0.9402515 1.0598423
000080 ee 3c 71 3f cf b8 8b 3f 0c 50 86 3f 40 a5 5c 3f
       0.94233596 1.0915774 1.0493178 0.8618965
000090 7b ff 80 3f d0 be 73 3f 50 82 84 3f ae 40 83 3f
       1.0077966 0.9521303 1.0352268 1.0254114
0000a0 93 d1 89 3f 10 ee 8e 3f ce 21 66 3f 2f c4 7c 3f
       1.0767082 1.1166401 0.8989533 0.9873685
0000b0 a0 de 87 3f 69 ac 8b 3f 41 2a 9c 3f 25 4b 86 3f
       1.0614815 1.091199 1.2200395 1.0491682
0000c0 db e9 89 3f 73 4b 80 3f ef 45 7f 3f 4d 8a 8d 3f
       1.0774492 1.0023025 0.99716085 1.1057831
0000d0 34 7c 82 3f 58 7a 6b 3f 2d 43 84 3f 6d 65 8e 3f
       1.0194154 0.91983557 1.0333 1.1124703
0000e0 69 8b 86 3f c4 00 7f 3f 0f a5 61 3f fc a7 6a 3f
       1.0511295 0.99610543 0.88142484 0.91662574
0000f0 19 a7 82 3f 83 ba 70 3f e2 4a 7f 3f ae 77 82 3f
       1.0207244 0.94034594 0.9972364 1.0192773

transformer.layers.0.norm1.bias f4 [64]
000000 41 0b bc 3b 3a 6d 65 bb c3 1d dc 3d 7a 83 8d 3d
       0.0057386463 -0.003500773 0.10747864 0.06909843
000010 da 8b 54 bc d2 f5 99 3a f0 c8 e0 3d c9 d7 e1 bc
       -0.012972796 0.0011746234 0.10975826 -0.027568715
000020 98 06 9e bd fb 7c 3b 3c e0 74 ce b9 38 85 f0 bc
       -0.077161014 0.011443372 -0.0003937846 -0.029360399
000030 00 43 9a 3d d9 8b 84 3c bc 87 3a bd 45 46 c7 3d
       0.075323105 0.016179966 -0.045539603 0.097302
000040 34 dc a6 3b f5 51 ff bc a8 23 35 bd 81 06 08 3d
       0.005092168 -0.03116701 -0.044223458 0.033209328
000050 e6 0a a8 bc 47 c4 4f bd ef f7 65 3d 5d af 1e 3d
       -0.02051301 -0.050724294 0.05614465 0.03874146
000060 50 2c c3 bd 39 3a 38 3d f1 ad f1 3c d9 40 f5 3d
       -0.09529936 0.0449774 0.029501887 0.11975259
000070 e3 84 e7 bd 56 f4 43 bd 0c 9d 88 bd 0c 2c c8 bc
       -0.11304643 -0.04784044 -0.06670579 -0.024435066
000080 16 98 92 3d dd e7 a1 bb a2 01 f4 bc a9 9b 0f 3e
       0.07157914 -0.0049409703 -0.029785935 0.14024223
000090 78 f9 ce bc a0 0c c5 bc 00 43 37 bc 9c 97 e2 3c
       -0.02526544 -0.024053872 -0.011185408 0.027660184
0000a0 b2 f0 b2 bc 14 ab 79 ba 1c 91 b2 3d 6d 6e 06 bd
       -0.021843288 -0.0009524089 0.08719084 -0.032820154
0000b0 1c b5 5c bd a7 92 88 bc d8 88 c7 3c 74 68 32 3c
       -0.053883657 -0.016671492 0.024357244 0.010889161
0000c0 66 12 d5 3c 4c 1a 12 3d 12 df 27 bd 71 3f 2e bd
       0.02600975 0.03566961 -0.04098422 -0.04254097
0000d0 d9 dc 53 3d 56 6d e0 3d d0 91 08 3d 78 40 48 3c
       0.05172429 0.10958354 0.033342183 0.012222402
0000e0 da be e7 bc 6c bd 44 bd db 94 ed 3d c3 6e ab 3d
       -0.028289247 -0.04803221 0.116006576 0.083707355
0000f0 9f 24 d4 bd 3b ea 82 bd cd 94 e6 bb 64 6e d0 bc
       -0.103585474 -0.06392332 -0.0070367814 -0.025443263

transformer.layers.0.norm2.weight f4 [64]
000000 4e 83 81 3f b4 68 88 3f a5 2f 75 3f 0d 32 7b 3f
       1.0118196 1.0656953 0.95775825 0.98123246
000010 aa d7 77 3f 70 84 82 3f ec 0b 71 3f 2b 08 86 3f
       0.9681345 1.0196667 0.94158816 1.0471243
000020 3d 33 76 3f 43 4d 88 3f d9 fe 8d 3f 0b 17 88 3f
       0.96171933 1.0648578 1.1093398 1.0632032
000030 9f d2 8f 3f 5f 3f 7e 3f b6 66 82 3f 3c 68 7b 3f
       1.1236151 0.99315447 1.0187595 0.98205924
000040 53 88 83 3f 8f 74 8e 3f 48 a2 7b 3f ec 1f 82 3f
       1.0275978 1.1129321 0.98294497 1.0165992
000050 d8 31 83 3f 65 1b 85 3f 3c 8c 85 3f 6f 9c 82 3f
       1.0249586 1.0398985 1.0433421 1.020399
000060 e7 a2 6c 3f 93 9c 79 3f 02 98 82 3f eb 72 79 3f
       0.9243607 0.9750454 1.0202639 0.97440976
000070 8f f8 71 3f 3e 65 85 3f 37 83 7b 3f ee 70 8b 3f
       0.94519895 1.0421522 0.9824709 1.0893838
000080 7a 35 7b 3f 9e 82 84 3f 5c 45 8e 3f 3f 92 6a 3f
       0.98128474 1.0352361 1.1114917 0.91629404
000090 ad 23 83 3f bb a2 7d 3f c0 5f 7f 3f 80 1f 80 3f
       1.0245262 0.9907643 0.9975548 1.0009613
0000a0 a4 a5 87 3f 2e f2 88 3f 97 82 7d 3f 64 fa 83 3f
       1.0597425 1.0698907 0.9902739 1.0310788
0000b0 24 b0 8d 3f c8 15 86 3f e3 42 8e 3f 6d ea 85 3f
       1.1069379 1.0475397 1.1114162 1.0462166
0000c0 91 c1 89 3f 30 7e 81 3f fd 07 7b 3f cf b7 86 3f
       1.0762197 1.0116634 0.98059064 1.0524844
0000d0 de 82 8a 3f b6 d0 75 3f e1 7c 87 3f 82 67 90 3f
       1.0821187 0.9602159 1.0584985 1.1281588
0000e0 d5 16 83 3f e4 20 83 3f 88 98 70 3f fc 3c 79 3f
       1.0241343 1.0244412 0.93982744 0.9735868
0000f0 bd f5 8a 3f 06 e6 76 3f 15 39 7e 3f 70 f1 82 3f
       1.0856243 0.9644474 0.9930585 1.0229931

transformer.layers.0.norm2.bias f4 [64]
000000 1b 57 8e 3a ce eb 58 bc 9b 65 82 3d 63 9b 8b 3d
       0.00108597 -0.013239814 0.06367036 0.06816747
000010 7e 51 91 bc 78 35 10 3b d8 18 92 3d e9 e5 b4 bc
       -0.017739054 0.0022004526 0.07133645 -0.022082286
000020 a5 98 7f bd ae 9f 21 3c b3 00 b0 3b b0 ab 9b 3c
       -0.062401433 0.009864731 0.005371177 0.019002765
000030 b5 04 99 3d 5a a4 f4 3c 8e 63 5e bc f8 56 05 3e
       0.07471601 0.029863525 -0.01357354 0.13021457
000040 ba df 7f 3b 9c 42 ca bc d5 f9 64 bd c3 3c 4f 3d
       0.0039043264 -0.024689965 -0.05590232 0.050595056
000050 4f 87 d6 3c 77 01 14 bc 27 94 93 3d 9a 06 3f 3d
       0.026187567 -0.009033552 0.07205992 0.046637155
000060 e6 b0 88 bd 17 9b 05 3d c9 4a 99 3c c0 79 d2 3c
       -0.06674366 0.03261861 0.018712418 0.02569282
000070 99 8d c4 bd fc 6d d0 bc 89 76 72 bd d0 4b 08 bd
       -0.0959732 -0.02544307 -0.059195075 -0.033275425
000080 ed 33 30 3d 9e 55 d7 3a e7 4d 71 bc 8f bd 61 3d
       0.04301827 0.0016428714 -0.014728046 0.055112418
000090 c0 45 b4 bc 50 cc 92 bc 99 fb da bb a7 d9 5b 3d
       -0.022005916 -0.01791969 -0.006682825 0.053674366
0000a0 b0 29 a6 bc 6a 0a 97 3b 11 38 a4 3c ba ca f2 bc
       -0.02028355 0.0046093957 0.020046266 -0.029637683
0000b0 84 8e d5 3c 20 23 76 bc b8 9d 26 3d 52 8e 23 3c
       0.026068933 -0.015023023 0.040677756 0.009982662
0000c0 ea 49 12 3d af b2 51 3d 08 c4 24 bd f2 90 63 bd
       0.03571502 0.051195797 -0.040226012 -0.055558152
0000d0 04 e2 7f 3d 8d 54 a5 3d 34 43 30 3c 8d df d1 bb
       0.062471405 0.080727674 0.01075821 -0.006404823
0000e0 92 da 50 bd 57 3c d4 bc aa 77 97 3d 78 a7 ab 3c
       -0.050989695 -0.025907679 0.07395871 0.020953879
0000f0 39 c3 86 bd fe 01 4e bd 41 dc 4a bc 6d a4 6e bc
       -0.065802045 -0.05029487 -0.012381614 -0.014565569

transformer.layers.1.self_attn.in_proj_bias f4 [192]
000000 f6 13 03 bd ef 29 91 3d a3 cd 6d 3d 4a 3f 90 bd
       -0.032001458 0.07088076 0.05805744 -0.070433214
000010 4c a5 16 bd 1f e4 07 bd 5f 19 a7 bb 76 d3 7d bd
       -0.036778733 -0.033176538 -0.00509946 -0.061969243
000020 5b fc 6b bd e0 af b3 3c be 06 69 bd 3c 4c 74 bd
       -0.05761371 0.02193445 -0.056891195 -0.059643015
000030 7b b4 0b 3d a5 3e 85 bd 87 1f cb 3d 9e 0f 31 be
       0.034107666 -0.06506089 0.09918123 -0.17291114
000040 3e ad 2b bc db 31 2a bd 0b 36 c5 bc 9a 02 59 bc
       -0.010478316 -0.041551452 -0.024073621 -0.013245249
000050 b7 9a c8 3b 98 50 94 bc 4b ff 3d bc 82 6a a8 3b
       0.006121959 -0.018104836 -0.011596511 0.00513965
000060 34 97 50 3d 25 3b de 3b f1 67 7d bd 59 c2 80 3d
       0.05092545 0.006781953 -0.061866704 0.06287069
000070 ec 1d 5b 3d 25 3f 8f 3d 73 a6 62 3d 81 0b a2 3d
       0.053495333 0.06994466 0.05533452 0.079123504
000080 f9 70 d7 bc d6 70 21 bc f3 e7 80 3d 2b 1a 24 bd
       -0.026298987 -0.009853562 0.06294241 -0.04006402
000090 db 44 26 3d 40 af 84 bd 82 45 9f 3c 3e 20 2e 3d
       0.04059301 -0.06478739 0.019442324 0.042511217
0000a0 18 09 4a 3d fc 1f 94 3d dc 7c 71 3d 69 60 66 bd
       0.04932508 0.07232663 0.058956966 -0.056244288
0000b0 e9 34 6b 3c dd b7 49 3d 24 e4 cf 38 d7 4c 87 bd
       0.0143558765 0.04924761 9.913024e-05 -0.06606453
0000c0 37 3c d4 3d ae 04 a5 bd c2 da 8f 3d de ee 93 3c
       0.103630476 -0.08057533 0.070241466 0.018058237
0000d0 82 ed 0a be ed 52 cc bd d5 56 e3 3d d1 fd cf bd
       -0.13567165 -0.09976754 0.11100546 -0.101558335
0000e0 c4 bf e3 3c 7f bd 89 bc 5e 68 17 bd 8d 61 46 3b
       0.027801402 -0.016813992 -0.036964767 0.0030270547
0000f0 d1 2f 2b 3d ae b2 bd 39 9a 26 0a 3c e6 e2 74 bc
       0.04179365 0.00036182016 0.008432055 -0.014946675
000100 48 44 0f ba 75 19 57 ba 3c ef 5f ba a4 b2 83 3a
       -0.0005465192 -0.00082053925 -0.00085424236 0.0010047746
000110 6c 51 96 ba 3a f4 2a ba 32 0e 1c ba 0c 48 18 3b
       -0.0011468357 -0.0006521378 -0.0005953043 0.0023236303
000120 65 d4 ce 3a 92 ec f9 b9 00 9f 8b 38 f7 38 ff 39
       0.0015779851 -0.0004766924 6.6576526e-05 0.00048679832
000130 00 eb 7a b9 5a 0b d7 39 b4 1c e1 3a 9a e2 f2 3a
       -0.00023929402 0.00041016453 0.0017174692 0.0018530667
000140 a9 bc 77 ba 56 7f c3 3a 58 dd c5 ba 64 69 38 ba
       -0.0009450415 0.0014915268 -0.0015095873 -0.00070347474
000150 46 ed ce bb 9d d7 5b ba 4d cd 02 3c 86 c3 40 bb
       -0.0063149063 -0.0008386316 0.007983518 -0.0029413416
000160 4d 2d b5 bb 93 5f 21 b9 f5 17 a4 bb 79 c6 80 3c
       -0.005529082 -0.0001538976 -0.0050077387 0.01571964
000170 b7 8b af 3c 10 40 c2 bb 81 a6 b0 bc c1 a2 71 3b
       0.021428926 -0.005928047 -0.02156377 0.003687069
000180 48 b6 0b 3a 2d 06 83 3b 2a e4 14 bb 7e 2b 3b bb
       0.0005329591 0.003998539 -0.0022719004 -0.002855986
000190 fb 33 27 3c e3 ba 83 bb 83 10 55 b8 47 dc a7 bb
       0.010205264 -0.0040200814 -5.0798535e-05 -0.0051226947
0001a0 c0 de 8c bb ab 4b 95 3b a5 25 11 3c 29 ab 19 3b
       -0.004299015 0.0045561395 0.008859073 0.0023447967
0001b0 ac 70 05 3c 4b 24 2c 3c cf 05 c7 3b 49 bc 39 bb
       0.008144539 0.0105067 0.0060736905 -0.0028340986
0001c0 bd 7c 24 bd 2b 59 11 3d 42 d4 05 bd f2 ad fd 3c
       -0.040158022 0.035485428 -0.032673128 0.030966733
0001d0 93 21 59 3c 3c e5 96 3c eb bc 80 bd f7 77 8d 3d
       0.013252634 0.018419854 -0.06286033 0.06907647
0001e0 e0 6f 6e bb 78 a7 2c ba 38 0d 0a ba 42 a5 0c ba
       -0.00363826 -0.0006586234 -0.0005266252 -0.00053652015
0001f0 75 22 07 3b e5 65 29 3c 69 cd 16 3c 30 39 3b bb
       0.0020619903 0.010339235 0.009204247 -0.0028568022
000200 59 01 ad bc 42 66 a8 bc 40 25 85 b5 da ff 84 bb
       -0.021118807 -0.020556573 -9.920113e-07 -0.00405882
000210 92 53 ac bc be 40 4c 3c d9 3c 75 bb 25 8a 64 bd
       -0.021035943 0.012466608 -0.0037420301 -0.055795807
000220 50 72 06 3c f1 19 48 3c 69 ec 4d bc 41 ae 86 3c
       0.008205965 0.012213216 -0.012568572 0.016440513
000230 85 5b 84 3b dc 0c ca bc 6d f3 04 bc 02 a1 7c 3c
       0.0040392303 -0.024664335 -0.008114678 0.015419247
000240 cc c1 85 bc 32 e1 05 3d 20 fc e6 3c 85 54 72 bc
       -0.016327761 0.032685466 0.028196394 -0.014790659
000250 b2 20 00 bd 48 d4 d5 bc fd 4a 01 bd f3 51 aa bb
       -0.03128118 -0.0261022 -0.031565655 -0.0051977574
000260 8a f6 c8 3c 35 a8 24 bd 10 a7 83 3c 4b e4 13 3d
       0.024531621 -0.040199477 0.016070873 0.03610639
000270 40 33 e5 39 6e a4 8e ba 55 c5 69 bd ed 46 25 3d
       0.00043716468 -0.0010882744 -0.057072956 0.040350843
000280 60 b7 99 3c ee 74 d8 3c aa f0 55 3a 77 1b 85 bc
       0.018764198 0.026422944 0.0008161167 -0.016248448
000290 74 11 bb bc e7 4d da bb 07 04 cc 3b 66 9d ce bc
       -0.02283547 -0.0066621187 0.006226066 -0.025221538
0002a0 11 e7 69 3c 92 48 ca bc 36 68 5d 3a e4 60 f2 3c
       0.014276282 -0.024692807 0.00084460096 0.029587217
0002b0 7d 83 4b bb d2 f5 ba 3c ca 17 be bc f3 0c 62 3c
       -0.0031053715 0.022822294 -0.023204703 0.013797033
0002c0 e1 30 ab bc c7 49 c3 3b 9c c4 c4 3c 06 8b 91 3c
       -0.02089733 0.0059597227 0.024019532 0.017766487
0002d0 55 1d 33 bc 99 f3 55 3c e8 ed cf bb cd e4 57 3c
       -0.010932286 0.0130585665 -0.0063454993 0.013177109
0002e0 1e d0 23 3d 14 d9 df bc 62 d4 0e bc 95 9d 3f bc
       0.039993398 -0.02732519 -0.008717628 -0.011695285
0002f0 fb 2e 0f bd ea 7b a1 3c 1c 52 8a bc 2b 81 8e bc
       -0.034956913 0.019712407 -0.016884856 -0.017395576

transformer.layers.1.self_attn.out_proj.weight f4 [64, 64]
000000 68 70 93 bd 2e 5f 60 3d 29 81 a9 3d 64 d4 ad bd
       -0.07199174 0.05477827 0.082765885 -0.08487776
000010 27 ea 0e 3e 63 00 74 bd 62 ed 03 be a0 d0 50 bb
       0.1395651 -0.05957068 -0.12883523 -0.0031862631
000020 3a e5 a9 39 e8 46 14 3d 9f ca 26 ba aa 2e d3 3d
       0.0003240498 0.036200434 -0.00063625904 0.10311635
000030 86 15 90 3d 90 e7 b3 3d ad f3 ad 3d 1f 34 79 bd
       0.07035355 0.087844014 0.08493743 -0.060840722
000040 21 45 a0 3d 3e c3 88 3d 63 5b aa bd ea 17 d3 bd
       0.07825685 0.066778645 -0.08318212 -0.103072956
000050 1a 96 15 bd 8e 58 00 be 52 a1 9d 3d 1a ea 1c be
       -0.0365201 -0.12533781 0.07696785 -0.15323678
000060 83 8a f0 3c 4d 9e 50 bd b1 ab ab bd 0a b9 4a 3d
       0.029362923 -0.050932217 -0.08382357 0.049492873
000070 05 15 c6 3d 6a 29 14 3e e4 7d 24 bd f8 02 1f 3e
       0.09671978 0.14468923 -0.04015912 0.15528476
000080 7d e1 f5 3a ac c1 9f bd 62 b7 18 3c 3c e7 92 bd
       0.0018759217 -0.07800612 0.009321066 -0.07173011
000090 e1 e0 32 3b 07 76 2c bc 1d 21 0f be a2 62 4d 3b
       0.0027294683 -0.010526187 -0.13977475 0.0031339307
0000a0 18 28 6c 3c 74 f9 c6 3c 4d 93 67 bd 49 b1 3c 3d
       0.014413856 0.02428887 -0.05653696 0.04606751
0000b0 69 05 f1 3d 4c 35 6e bd 0f 0a 3b 3c ce ee 38 3e
       0.1176861 -0.058156297 0.011415972 0.18059847
0000c0 89 76 c3 3c 55 f0 02 3c 7d 51 2e 3e a1 9b 0e be
       0.023860233 0.00799187 0.17023273 -0.13926555
0000d0 0c e8 6a 3c 37 20 37 3d 5d d2 00 be ff 89 21 3d
       0.014337551 0.044708457 -0.12580247 0.039438244
0000e0 eb 95 03 3e be ff a7 bd e0 fb 14 be eb fb 34 3d
       0.12850158 -0.08203076 -0.14549208 0.04418556
0000f0 db e7 f1 bd f0 d8 13 3e a8 2f 7a bc 07 eb 42 3c
       -0.11811801 0.14438224 -0.015270151 0.011896855
000100 dd d9 de bc 33 58 c6 3c 9a 0a 22 3e 81 6e 35 3d
       -0.027203495 0.024211979 0.15824357 0.044294838
000110 6d 75 02 bc 6d e7 67 3d 0d ae 78 bd 2b 96 a5 3d
       -0.007962567 0.05661719 -0.060712863 0.08085283
000120 7e 2c f8 bc 6a 4b cf 3d 87 3c 96 bd 5e 6f 58 bd
       -0.030294653 0.10121806 -0.073357634 -0.052840583
000130 33 83 b1 bd 98 80 9e 3d 0a 12 a1 bd 9f e2 b2 bc
       -0.086676024 0.07739371 -0.07864769 -0.021836577
000140 ce 49 ba 3d e3 e8 6d bd 06 1e f9 bc 03 9d 2c 3c
       0.090961084 -0.058083426 -0.030409824 0.010535481
000150 89 a3 36 3d f6 c0 12 bd 6c 06 9d bd 57 7e 01 3d
       0.044589553 -0.035828553 -0.076672405 0.031614628
000160 d9 e5 87 bc e0 06 5d 3d 53 be 20 bd d1 7a b3 bc
       -0.016589092 0.053961635 -0.039244007 -0.02190915
000170 7c 84 44 bc 73 d3 84 bc f7 ef 43 3d cf 42 ac bb
       -0.011994477 -0.016214108 0.04783627 -0.0052569876
000180 0f 05 81 3d ff 02 21 be 57 b1 92 bd aa 7a 97 3c
       0.06299793 -0.15723799 -0.07162731 0.018491108
000190 1c 57 ff bc 14 b3 3e 3d e7 9d 25 3e 78 40 2d 3e
       -0.031169467 0.0465575 0.16173516 0.16919124
0001a0 ea 53 5b bd f7 e0 97 bd 1f 3b 5a bd 07 4e 18 be
       -0.053546824 -0.074159555 -0.05327904 -0.14873515
0001b0 a2 86 d2 3d b6 65 65 bd da db d9 bd ed 1d 80 3a
       0.102795854 -0.056005202 -0.106376365 0.0009774544
0001c0 6e 93 0f be 09 7a 23 bd 3e 14 f1 3d 89 e8 38 3e
       -0.14021084 -0.039911304 0.11771439 0.18057455
0001d0 56 8f 96 3d 65 ef 55 3d 15 53 39 be 62 49 4d be
       0.07351558 0.052230258 -0.180981 -0.20047525
0001e0 87 2f 77 be aa fd 79 3e bd ea 14 3e 2d 23 d2 3d
       -0.24139224 0.24413171 0.1454267 0.102606155
0001f0 13 cf 1f 3e 28 d8 67 be 41 f1 b8 bd 59 d4 82 3e
       0.15606336 -0.22641051 -0.090303905 0.25552633
000200 ab 71 79 3d 38 c8 46 3d a4 13 6d bd 8d 6c 96 3d
       0.060899418 0.048530787 -0.05788006 0.07344923
000210 8c 02 54 3d e4 c1 bb b9 74 b6 18 3b 27 33 80 3d
       0.05176024 -0.0003581188 0.002330211 0.062597565
000220 cb 73 01 bd 8d dc 16 be ff c6 70 bd fe 8d e1 bd
       -0.03160457 -0.14732571 -0.058783527 -0.11013411
000230 ed 66 74 3d db c7 e2 3d dc 60 ff bd 4f 5d d4 bd
       0.05966847 0.11073276 -0.12469646 -0.1036936
000240 59 b7 5d 3c 26 98 8d bc 53 a3 4e 3c fc bf c0 bd
       0.013532483 -0.017284464 0.012612182 -0.09411618
000250 a1 0c 95 3d 9a 52 ad 3d cb bc 23 3d 53 48 80 bc
       0.072777994 0.084630206 0.03997497 -0.015659487
000260 55 ef ed bc 2f e7 2b bc 97 6f fc bd 8a 76 c0 3d
       -0.029044786 -0.01049213 -0.123259716 0.093976095
000270 d0 97 0e 3e 7f e8 1b be a8 5b 02 3e cb 72 44 be
       0.139251 -0.15225409 0.12730277 -0.19184415
000280 88 6b a9 3d b2 77 15 be a7 6e 8c 3c 26 1c 82 3d
       0.08272463 -0.14596441 0.017142607 0.06353025
000290 c9 6e c1 3d 86 2e 92 3d e8 90 af 3c 9e bd bd 3d
       0.09444959 0.0713778 0.021431401 0.09264682
0002a0 54 6f 32 bd 2f 43 22 3e f9 17 14 3d f6 ce 2b 3e
       -0.043563202 0.15845941 0.036155675 0.16778168
0002b0 74 da 5a be 5e 12 be b9 57 c3 fb 3d be 12 54 be
       -0.21372396 -0.0003625331 0.122931175 -0.20710275
0002c0 4c b9 c9 3d d5 4e 4a 3e ff 78 24 bd 61 b4 24 3e
       0.09849796 0.19756635 -0.040154453 0.16084434
0002d0 3e 62 5e 3c dd e8 1b 3d c8 e8 cd bd 89 7a 18 3e
       0.013573227 0.038063873 -0.10054165 0.14890493
0002e0 a4 3e 3d be 8f 9a 17 3e 17 83 17 3d ec a5 90 3d
       -0.18480927 0.14805053 0.03699025 0.07062897
0002f0 66 17 09 bd 51 21 d6 3c a4 ef f0 3d 05 d2 e0 3d
       -0.03346958 0.026138933 0.11764458 0.10977558
000300 00 6e ba bd 0a 35 c6 bc a2 c5 9b bc 7a 6d f2 bc
       -0.09103012 -0.024195213 -0.019015137 -0.029593218
000310 43 d0 08 3e 4c 24 45 3c 09 ef 4d 3d eb ae 36 3a
       0.13360696 0.01203258 0.05027679 0.0006968814
000320 67 ac ce bc 15 83 53 bd c3 84 dc 3d 67 38 b5 3d
       -0.025228692 -0.05163868 0.1076751 0.088486485
000330 9e f8 b4 3d de 1a cb b9 02 e5 7f bd 93 a3 bd 3d
       0.088364825 -0.00038739195 -0.06247426 0.09259715
000340 01 6b d2 3b 74 bc 3f bc 5d 9e fc 3d c6 83 ca bd
       0.0064214473 -0.011702646 0.12334893 -0.09888415
000350 72 5b e5 3d 2b 32 01 bd cb 92 91 39 68 fc b3 bd
       0.111990824 -0.031541985 0.00027765924 -0.08788377
000360 0b 6c 03 3e c2 b6 04 3e a2 0e 04 3e d9 de 46 3d
       0.12834184 0.12960342 0.12896207 0.048552368
000370 e9 83 cd 3d 6f cf a8 3d 29 0d db bd be 12 db 3d
       0.100349255 0.0824269 -0.106958695 0.10696934
000380 a9 14 34 3d 94 ee 10 3d bb 46 93 bc 1e 0f a6 bd
       0.043965016 0.035383776 -0.017978063 -0.08108352
000390 d9 6c c6 ba 4d 67 c1 bd 41 80 13 be 68 e7 99 bd
       -0.001513864 -0.09443531 -0.14404394 -0.0751484
0003a0 f7 e4 bd 3d e2 3b be 3d ba 28 7c bc 5b 81 1b bd
       0.09272187 0.092887655 -0.015390569 -0.03796516
0003b0 03 cf 45 bc 04 16 46 be 08 88 8e 3a 82 6d 13 3d
       -0.012073281 -0.19344336 0.0010874281 0.035993107
0003c0 57 4c 6b bd 14 d0 9f bd d6 43 cc bc 28 76 f7 3d
       -0.05744585 -0.0780336 -0.02493469 0.120830834
0003d0 69 95 8f 3d fe e6 d9 3d fc 14 6d 3d 96 05 0d 3d
       0.070109196 0.106397614 0.05788134 0.034429155
0003e0 af 3d 46 be 10 d1 3f 3d ab 64 af 3d 96 d7 c2 3c
       -0.19359468 0.046830237 0.08564123 0.02378444
0003f0 fd ad 7b bd b9 b8 03 be ae 1f b5 bb 18 4e db 3d
       -0.061445225 -0.12863435 -0.005527458 0.107082546

transformer.layers.1.self_attn.out_proj.bias f4 [64]
000000 86 89 06 bc 6e 69 94 bb bc 37 01 3d 6a 15 53 3a
       -0.008211499 -0.0045291698 0.031547293 0.0008052202
000010 35 d1 d3 3a d4 3c 93 bc 05 e4 ef 3c 9d 13 33 bc
       0.0016160371 -0.017973341 0.029283533 -0.010929969
000020 52 03 9d bc d6 20 83 3c 3c 79 7a 39 a2 1b e4 3c
       -0.019166622 0.016006868 0.00023887021 0.027845208
000030 fc 0e 0d 3d 26 ea c3 bb f6 20 c0 bc 90 77 cf 3b
       0.03443812 -0.0059788404 -0.023453217 0.0063313916
000040 0b 05 cb 3c 35 77 63 bc 27 2c 25 bb e8 78 ad 3c
       0.024782678 -0.013883402 -0.0025203319 0.021175817
000050 2d e8 66 3b ea 97 95 bc 71 10 20 3d c7 07 8f 3b
       0.0035233602 -0.018260915 0.03907818 0.004364941
000060 6d 14 41 bd 47 0b 00 3c 82 54 ac 3c 99 ac e5 3b
       -0.04713862 0.007815189 0.02103639 0.0070091006
000070 e9 fd e2 bc 99 1f 27 bc ac 7e d7 bc 18 33 fa bc
       -0.027708964 -0.010200405 -0.026305519 -0.030541942
000080 65 c4 ab 3c 3f 7a eb bc 37 56 e2 3b d4 18 0e 3d
       0.020967672 -0.028744815 0.0069072503 0.034691647
000090 b6 28 9b 3b 21 49 97 3c 19 96 98 bc af 37 be 3b
       0.0047350777 0.018467488 -0.01862626 0.005804978
0000a0 e8 59 19 bd 1e cf 8a 3b 85 eb 2a bc ee 7d 0a bb
       -0.037439257 0.004236116 -0.010432129 -0.002113219
0000b0 db 34 1d bb 07 a1 6e bc 50 b4 bc 3b c6 a3 b6 3c
       -0.0023987803 -0.014564759 0.0057587996 0.02229489
0000c0 d1 90 39 3d 5e 75 75 b9 5e 1d 27 bc d2 b6 13 bd
       0.045304123 -0.00023408743 -0.010199873 -0.036063023
0000d0 09 26 86 ba 57 80 00 3d fe c5 16 3d d3 88 3d bb
       -0.0010234724 0.031372394 0.036809914 -0.0028920665
0000e0 7c 0e dc bc a3 ee c5 bc b6 aa 22 3d e8 2c 99 bb
       -0.026862375 -0.024161642 0.039713584 -0.0046745427
0000f0 ee bb 03 bc 0b 8f 99 bc e8 15 05 bd f0 94 9b 3b
       -0.008040411 -0.018744966 -0.032491595 0.0047479793
